ml/tricks_gru.onnx (onnx, 373385 bytes, 6 tensors)

embed.weight f4 [95, 64]
3.7912023 -1.5192682 -1.028416 0.09776924 -1.637466 -0.46442598 0.49073902 -0.5720289
-0.08685534 0.23581389 -1.0698918 -0.18256247 0.80951995 -1.7540793 -0.059277084 1.8697828
-1.4393988 -0.6702257 0.65688056 1.7409676 -0.24688773 -3.8130114 -1.8842597 1.2117006
-0.32567734 1.1485473 1.6272006 -0.71477544 -0.017528445 0.9275569 -0.14194493 0.47656143
0.8416855 0.7101978 1.154855 0.97849274 -0.7602374 -0.4182512 0.8715317 0.041842975
-0.97520524 -0.0908556 1.0634767 0.1667817 1.6045505 2.3001366 -1.6667885 0.42849186
-1.6412829 -0.9135781 1.089448 0.038168266 0.6214917 0.6788317 -0.23741052 0.9279115
1.380321 -0.5299862 -0.04535828 0.88845533 1.9870726 0.9720731 -2.0759532 0.6055418
2.1988995 0.05590279 0.064028874 1.0291106 0.17319392 -0.5581123 0.43754065 -1.3683603
0.59489465 -1.6959512 -0.14817935 1.81627 1.3730879 -1.238511 0.35263807 -0.41054255
-1.3326358 0.87189245 -0.6109495 -0.18255855 1.4321282 0.712739 -1.2999446 -1.3560911
-1.0125235 1.1711786 0.745797 -0.8245881 0.8886057 -0.8877544 -0.12049716 0.24007355
1.9755987 0.15299618 1.516416 1.4687427 0.43540832 0.48021865 1.9376224 0.2574321
1.0043168 -0.281553 -0.7894757 1.0341887 1.1331092 0.95688987 -1.2260259 -0.4785062
0.44030184 -0.602852 -0.23036714 -1.14455 -1.9017738 -0.77330905 -0.25911164 -0.6048946
0.022999117 -2.2530992 -0.55535084 1.9590178 0.30229628 -0.7161693 -0.327711 -0.3411694
-1.731471 -1.0903262 -0.30148306 1.5059532 -1.5184674 -2.9633796 1.4241198 0.16830504
1.0028495 -0.9690892 0.770522 -0.82953686 1.5050632 -0.6475457 -0.34601808 0.76056254
0.48882434 -2.0163903 -0.6864142 -0.32036197 -1.796814 0.15274064 2.4207842 0.051437106
-0.81876403 1.1467228 0.70514643 1.0652605 -0.4074672 -1.0992615 0.9144319 -2.4597094
-0.53289384 -1.4975425 1.8209763 -1.0092216 -0.58180374 0.51191926 2.1070561 1.476222
-0.56516165 -0.8354777 -0.120669834 0.3724956 0.3603467 -2.4651575 0.32353747 1.8050977
0.31548044 -0.1764304 -1.9571192 0.18257324 -0.86689144 -1.0741607 -0.22595459 1.4485961
0.98709345 0.090436 1.300719 -0.41556704 2.389358 -0.19588132 -0.5997259 0.56429636
1.4640088 2.0774188 -0.45746028 1.2602553 0.18216082 1.3308609 -0.08805058 1.4118216
-0.36760738 1.7986833 -0.48895457 -0.8371143 -0.38594005 -0.69585735 1.3924023 0.20525599
-0.8324466 0.48547345 -0.05416518 -1.4370662 0.5335778 1.1021286 -0.005473419 0.342718
0.9797404 0.72493106 0.54201883 0.12656868 -1.2084244 1.1136274 0.38758084 0.068706825
0.6507078 0.923291 -0.8307526 -2.1394494 -1.2973361 1.3202264 -0.05383809 0.4214504
-1.1827235 1.202884 1.2443973 -2.0076804 -1.4539117 -0.8781189 0.87079716 1.0321611
-0.45630604 -0.20257993 -1.6057403 0.21388043 1.1027687 -1.672901 1.1668017 2.2521043
2.206461 0.038785584 0.52902806 -1.5437441 -2.0816357 -0.62135315 -0.6697369 -0.61004496
00000000: 0fa3 7240 6177 c2bf 23a3 83bf 3d3b c83d
00000010: 7c98 d1bf 3ec9 edbe 2542 fb3e 7c70 12bf
00000020: 36e1 b1bd 3279 713e 37f2 88bf a8f1 3abe
00000030: b33c 4f3f ac85 e0bf 87cc 72bd 0b55 ef3f
00000040: 383e b8bf e993 2bbf 5329 283f 07d8 de3f
00000050: 23d0 7cbe 6108 74c0 6c2f f1bf 0119 9b3f
00000060: 2ebf a6be 9903 933f 1c48 d03f 86fb 36bf
00000070: d097 8fbc 5e74 6d3f 035a 11be dcff f33e
00000080: b378 573f 86cf 353f 4ad2 933f 807e 7a3f
00000090: eb9e 42bf 0525 d6be b41c 5f3f 8a63 2b3d
000000a0: 0da7 79bf 8012 babd 0120 883f d2c8 2a3e
000000b0: e961 cd3f 7035 1340 5359 d5bf 4963 db3e
000000c0: 8f15 d2bf 41e0 69bf 0873 8b3f 5456 1c3d
000000d0: 141a 1f3f eac7 2d3f be1b 73be 9c8b 6d3f
000000e0: 5cae b03f 2dad 07bf 9bc9 39bd cf71 633f
000000f0: 6558 fe3f c8d9 783f 6bdc 04c0 ca04 1b3f
00000100: c5ba 0c40 53fa 643d 9221 833d e5b9 833f
00000110: bf59 313e 73e0 0ebf 5405 e03e 6e26 afbf
00000120: 044b 183f ee14 d9bf 54bc 17be 897b e83f
00000130: 58c1 af3f 8787 9ebf fa8c b43e a232 d2be
00000140: cf93 aabf 5834 5f3f 3067 1cbf a1f0 3abe
00000150: fa4f b73f 1076 363f 9664 a6bf 6594 adbf
00000160: 5f9a 81bf 2ee9 953f 8dec 3e3f 3518 53bf
00000170: aa7b 633f df43 63bf 37c7 f6bd d7d5 753e
00000180: 6be0 fc3f 08ab 1c3e eb19 c23f c3ff bb3f
00000190: d7ed de3e 38df f53e 0304 f83f 24ce 833e
000001a0: 748d 803f b727 90be 141b 4abf 4c60 843f
000001b0: b909 913f bcf6 743f 6bee 9cbf c4fe f4be
000001c0: 3e6f e13e 8254 1abf 5de5 6bbe 9d80 92bf
000001d0: 536d f3bf 95f7 45bf 48aa 84be 5fda 1abf
000001e0: a568 bc3c c732 10c0 792b 0ebf 18c1 fa3f
000001f0: 94c6 9a3e df56 37bf bcc9 a7be c1ad aebe
00000200: d7a0 ddbf cf8f 8bbf fd5b 9abe 13c3 c03f
00000210: 245d c2bf 03a8 3dc0 8f49 b63f 2858 2c3e
00000220: 5f5d 803f 3b16 78bf ee40 453f 875c 54bf
00000230: e9a5 c03f 8ec5 25bf 4829 b1be 3ab4 423f
00000240: 2f47 fa3e 8a0c 01c0 d7b8 2fbf 7c06 a4be
00000250: 00fe e5bf 0b68 1c3e 21ee 1a40 b7af 523d
00000260: 859a 51bf d0c7 923f 7a84 343f 755a 883f
00000270: 8a9f d0be 9ab4 8cbf 3618 6a3f e16b 1dc0
00000280: bb6b 08bf 79af bfbf c015 e93f 2c2e 81bf
00000290: 17f1 14bf 240d 033f 02da 0640 d8f4 bc3f
000002a0: 6fae 10bf dee1 55bf bf21 f7bd beb7 be3e
000002b0: 5d7f b83e 24c5 1dc0 b4a6 a53e 710d e73f
000002c0: a786 a13e 2caa 34be e282 fabf 7bf4 3a3e
000002d0: 99ec 5dbf 197e 89bf a460 67be 996b b93f
000002e0: 28b2 7c3f 8236 b93d f67d a63f 34c5 d4be
000002f0: 3eeb 1840 1d95 48be a387 19bf ba75 103f
00000300: a464 bb3f 6ef4 0440 3c38 eabe 0c50 a13f
00000310: 5e88 3a3e a659 aa3f dd53 b4bd 92b6 b43f
00000320: 0937 bcbe 413b e63f 4158 fabe 1f4d 56bf
00000330: ef99 c5be b523 32bf 3d3a b23f a02e 523e
00000340: 381b 55bf fa8f f83e 4fdc 5dbd c9f1 b7bf
00000350: 8e98 083f 8d12 8d3f 5e5a b3bb bc78 af3e
00000360: 44d0 7a3f 1595 393f bfc1 0a3f 389b 013e
00000370: a7ad 9abf 588b 8e3f ff70 c63e 2ab6 8c3d
00000380: c994 263f cd5c 6c3f 34ac 54bf bdec 08c0
00000390: 1c0f a6bf 2efd a83f 5485 5cbd 59c8 d73e
000003a0: 7c63 97bf 1af8 993f 6948 9f3f d67d 00c0
000003b0: c719 babf 66cc 60bf 90ec 5e3f db1d 843f
000003c0: f2a0 e9be 1d71 4fbe e688 cdbf 7903 5b3e
000003d0: 8627 8d3f 9f21 d6bf c259 953f 7a22 1040
000003e0: a836 0d40 a2dd 1e3d 626e 073f 6899 c5bf
000003f0: 8539 05c0 0011 1fbf e173 2bbf e82b 1cbf

fc.weight f4 [95, 128]
0.3275359 -0.057493087 0.5079449 0.2771754 0.40017435 0.071682446 0.0821733 0.039717995
0.69325155 -0.3492184 -0.5125555 -0.46717563 0.39449948 0.19734032 -0.18107286 -0.72391844
-0.059585545 -0.3630817 -0.02987436 0.046087865 0.21886414 0.78706175 -0.24358602 -0.38282022
0.32773957 0.44061533 -0.20653404 -0.5525651 0.12266765 -0.34994876 0.35563913 -0.56026894
-0.6208585 0.5693 -0.4305629 -0.24824177 0.0039960532 -0.15938143 0.099320054 -0.46919665
0.32413763 0.009863503 -0.046406932 -0.14297386 0.20232859 0.3312618 -0.035469033 0.22867405
-0.29048902 -0.10797598 0.26201135 0.07352456 -0.12776622 0.191602 0.33769792 -0.3794593
-0.49659422 -0.41545016 -0.10083546 0.24512386 -0.18433253 0.3907128 0.059865236 -0.40691864
0.119719155 0.14573602 0.25785077 0.8725305 -0.1663006 -0.061135765 0.229043 -0.49772257
-0.30703256 -0.16207081 0.31675205 -0.1228029 0.15201178 -0.27447218 -0.33805093 -0.39157796
-0.41498327 0.27778998 0.7059362 0.023734871 -0.42346773 0.19015369 -0.18156978 -0.48857865
-0.035740014 0.11499959 0.16700055 0.018523557 -0.46892902 0.49812707 0.51312995 -0.035070613
-0.6042329 -0.091559865 -0.42390138 -0.4698272 0.0034043584 -0.04343195 -0.022809394 -0.095051385
-0.1266113 -0.28121322 0.2403219 -0.14420825 -0.45959258 0.18399726 -0.50703675 0.24860997
0.21802048 0.36749372 0.061079312 -0.19662832 -0.46624127 0.3643853 -0.4281765 -0.49488324
0.69732773 -0.43776938 -0.2756989 0.30693796 -0.606302 0.19168662 -0.12604704 -0.5899221
0.24398372 -0.38835117 0.39965418 -0.018164143 0.479226 -0.18226424 -0.011717884 0.2569047
0.04043848 -0.5203604 -0.43113726 -0.6564329 0.06279896 0.16469476 -0.06502622 -0.3406288
-0.31375933 -0.24458118 0.0977628 -0.17807934 0.29353428 0.8169234 -0.2604693 -0.057517346
0.11404617 0.124828964 -0.28165472 -0.049263854 -0.003062251 -0.4638861 0.09386099 -0.092515394
-0.6010565 0.596959 -0.2821465 0.04499576 -0.22602955 -0.10595308 0.16536161 -0.054715864
0.35629195 -0.12767826 -0.17337361 0.1146306 0.22405395 0.07441087 -0.28499004 -0.14873958
-0.26713854 -0.0670966 0.14411132 -0.3160094 0.048326768 -0.13972504 0.54489046 -0.35414752
-0.2688676 -0.69782674 0.117813066 0.051321406 -0.25835586 0.32604665 0.26211667 -0.04650496
0.044694334 0.18448876 -0.20689146 0.23112875 -0.25460756 -0.34505954 -0.00430519 0.14831467
-0.37540516 -0.11645645 0.033546977 -0.09414515 0.035020165 -0.442657 -0.47520992 -0.24606568
0.06889337 0.3897212 0.21901569 0.34796992 -0.34659404 0.28622913 0.10231181 -0.030128002
-0.13417321 -0.089886546 0.25482568 0.0019526167 -0.49568295 0.12955943 0.25145668 -0.033489954
-0.24787298 0.0419308 -0.06066918 -0.5495236 0.19803189 0.0055905785 0.16184072 -0.0989734
0.09597881 -0.118590854 0.019830305 -0.32596624 -0.10794766 0.5222266 -0.03933108 0.011636696
0.41110602 0.010721109 -0.18541323 -0.10136071 -0.32361257 0.43461752 -0.19837211 0.08230442
0.30878034 -0.3501415 -0.07697189 0.28109717 -0.6581738 0.022507694 -0.14184047 -0.37467426
00000000: c9b2 a73e df7d 6bbd ad08 023f efe9 8d3e
00000010: a7e3 cc3e 3fce 923d 7a4a a83d 56af 223d
00000020: ef78 313f c1cc b2be d636 03bf a531 efbe
00000030: d6fb c93e 9513 4a3e 2a6b 39be b852 39bf
00000040: f90f 74bd d8e5 b9be 13bb f4bc a1c6 3c3d
00000050: ec1d 603e e17c 493f 9d6e 79be 0301 c4be
00000060: 7bcd a73e 5598 e13e a97d 53be e874 0dbf
00000070: 2d39 fb3d 7c2c b3be 5516 b63e c96d 0fbf
00000080: 95f0 1ebf a5bd 113f be72 dcbe 1733 7ebe
00000090: 53f1 823b e334 23be 5068 cb3d 8b3a f0be
000000a0: 5ef5 a53e 889a 213c 3215 3ebd bd67 12be
000000b0: 3a2f 4f3e 269b a93e fa47 11bd 8829 6a3e
000000c0: faba 94be 8322 ddbd 5a26 863e 0b94 963d
000000d0: 26d5 02be 5133 443e bee6 ac3e 7d48 c2be
000000e0: 9941 febe e2b5 d4be d282 cebd c001 7b3e
000000f0: abc1 3cbe 820b c83e 4035 753d a457 d0be
00000100: 512f f53d d33b 153e 0405 843e 295e 5f3f
00000110: b44a 2abe 7f69 7abd 408a 6a3e 7ed5 febe
00000120: 5f33 9dbe e4f5 25be 532d a23e 1680 fbbd
00000130: faa8 1b3e 9e87 8cbe 0315 adbe e87c c8be
00000140: b078 d4be 7d3a 8e3e 3cb8 343f a26f c23c
00000150: c3d0 d8be a6b7 423e 6eed 39be fb26 fabe
00000160: 1f64 12bd e884 eb3d 3102 2b3e b7be 973c
00000170: 7717 f0be 830a ff3e 7c5c 033f 34a6 0fbd
00000180: 02af 1abf bd83 bbbd 9a09 d9be 318d f0be
00000190: a81b 5f3b b3e5 31bd c4da babc 4daa c2bd
000001a0: 65a6 01be 2efb 8fbe f216 763e 54ab 13be
000001b0: b84f ebbe c769 3c3e 29cd 01bf 9d93 7e3e
000001c0: c340 5f3e 2328 bc3e 4d2e 7a3d ef58 49be
000001d0: 2db7 eebe b690 ba3e f339 dbbe 5661 fdbe
000001e0: 1284 323f 4f23 e0be 6828 8dbe f926 9d3e
000001f0: 9c36 1bbf 7f49 443e 7a12 01be 2205 17bf
00000200: ded6 793e f7d5 c6be 799f cc3e f8cc 94bc
00000210: 1c5d f53e 7aa3 3abe 5efc 3fbc 0389 833e
00000220: d2a2 253d 5736 05bf 06be dcbe fd0b 28bf
00000230: be9c 803d bea5 283e 782c 85bd e666 aebe
00000240: 10a5 a0be 7d73 7abe dd37 c83d 6e5a 36be
00000250: 204a 963e e421 513f 3b5c 85be 4f97 6bbd
00000260: 0a91 e93d 54a6 ff3d 0c35 90be e5c8 49bd
00000270: 0cb0 48bb 7b82 edbe 313a c03d b678 bdbd
00000280: d7de 19bf 4ed2 183f 8275 90be 794d 383d
00000290: 4a74 67be eefd d8bd 8e54 293e be1d 60bd
000002a0: e66b b63e 17be 02be da88 31be 73c3 ea3d
000002b0: 666e 653e ba64 983d 37ea 91be 304f 18be
000002c0: 62c6 88be f169 89bd eb91 133e fccb a1be
000002d0: 4af2 453d 1514 0fbe f17d 0b3f d352 b5be
000002e0: 04a9 89be c6a4 32bf fa47 f13d 6536 523d
000002f0: 3847 84be 96ef a63e 2834 863e fc7b 3ebd
00000300: 6811 373d 9fea 3c3e 5bdb 53be 04ad 6c3e
00000310: ec5b 82be a5ab b0be 8d12 8dbb cddf 173e
00000320: 1b35 c0be b880 eebd 8e68 093d 2ccf c0bd
00000330: 4e71 0f3d f0a3 e2be b74e f3be a4f8 7bbe
00000340: f817 8d3d 8a89 c73e a645 603e 1d29 b23e
00000350: c674 b1be a08c 923e db88 d13d 00cf f6bc
00000360: b464 09be 7016 b8bd 8378 823e f2ee ff3a
00000370: 28ca fdbe 3aab 043e eebe 803e c32c 09bd
00000380: 6ad2 7dbe a1bf 2b3d 3f80 78bd 94ad 0cbf
00000390: dfc8 4a3e 2c31 b73b 93b9 253e 91b2 cabd
000003a0: 8a90 c43d c3df f2bd 2a73 a23c 0ce5 a6be
000003b0: aa13 ddbd a4b0 053f a019 21bd d7a7 3e3c
000003c0: 7d7c d23e 97a7 2f3c f7dc 3dbe 3496 cfbd
000003d0: 8cb0 a5be 3086 de3e 0f22 4bbe 388f a83d
000003e0: 7518 9e3e bf45 b3be 70a3 9dbd f8eb 8f3e
000003f0: 147e 28bf 0e62 b83c a13e 11be 4ed5 bfbe

fc.bias f4 [95]
-0.541089 -0.3345257 0.07269848 -0.05106017 -0.24800089 -0.053906847 0.19781092 0.15088156
-0.005856373 -0.130072 -0.12267181 -0.0990367 -0.17036663 0.28800145 -0.12250092 -0.06291424
-0.28564695 -0.037643235 -0.061148588 0.06470256 -0.11451973 -0.33252496 -0.4360481 -0.30203527
-0.3101287 -0.36986312 -0.28426486 -0.17377424 -0.013007175 -0.08246143 -0.22924578 -0.2602665
-0.2664127 -0.2678118 -0.02570489 -0.16478541 -0.14251302 -0.14177781 -0.00972271 -0.25202063
-0.31416994 -0.13447191 -0.070010394 -0.0071516917 -0.20361608 -0.332719 -0.030279998 -0.25655705
-0.06968303 -0.08841556 -0.33181226 -0.04136911 -0.014093574 -0.050253216 -0.09999333 -0.5279407
0.22605562 -0.19733958 -0.1848642 -0.057304043 -0.24198438 -0.13855113 0.028282216 -0.07997425
-0.25877628 -0.15130964 0.06776993 0.10348458 0.03556588 0.067842446 -0.12875861 0.0061497902
-0.19616394 0.02309909 -0.017122343 -0.06973858 -0.1482792 -0.09856052 -0.1938184 -0.25134653
-0.1644566 -0.067375995 0.051473957 0.026375312 -0.26111862 0.17640154 0.1440544 0.10661548
-0.24366511 -0.01741028 -0.16522281 -0.11542685 -0.09169837 0.2197766 -0.17175388
00000000: cf84 0abf f446 abbe f1e2 943d 7824 51bd
00000010: f2f3 7dbe 6dcd 5cbd f28e 4a3e b280 1a3e
00000020: d1e6 bfbb 9831 05be 5c3b fbbd c1d3 cabd
00000030: 9774 2ebe ed74 933e c3e1 fabd 2ed9 80bd
00000040: 5140 92be cb2f 1abd f176 7abd c782 843d
00000050: 5289 eabd b640 aabe b241 dfbe 5ea4 9abe
00000060: 30c9 9ebe b35e bdbe 2a8b 91be e0f1 31be
00000070: 0c1c 55bc 8ae1 a8bd 68bf 6abe a741 85be
00000080: 3f67 88be a11e 89be 1093 d2bc 82bd 28be
00000090: efee 11be 342e 11be 004c 1fbc d908 81be
000000a0: e2da a0be 01b3 09be 9c61 8fbd bd58 eabb
000000b0: bc80 50be 255a aabe c20d f8bc 725b 83be
000000c0: fab5 8ebd 3813 b5bd 4ce3 a9be a872 29bd
000000d0: bce8 66bc 51d6 4dbd 4ec9 ccbd 1f27 07bf
000000e0: 207b 673e 6313 4abe 0a4d 3dbe a5b7 6abd
000000f0: c1ca 77be 59e0 0dbe 1bb0 e73c 8ac9 a3bd
00000100: 537e 84be eaf0 1abe f6ca 8a3d b9ef d33d
00000110: 87ad 113d fbf0 8a3d 4cd9 03be 2e84 c93b
00000120: 33df 48be 4e3a bd3c 2844 8cbc 1ad3 8ebd
00000130: 81d6 17be 19da c9bd 5578 46be 7eb0 80be
00000140: 5067 28be 6dfc 89bd 5bd6 523d 0a11 d83c
00000150: 57b1 85be 9ba2 343e ff82 133e 3759 da3d
00000160: 5983 79be 01a0 8ebc 2b30 29be ea64 ecbd
00000170: 5bcc bbbd 1e0d 613e 40e0 2fbe

onnx::GRU_110 f4 [1, 384, 64]
-0.35231292 -0.06489674 0.063055605 -0.045370474 0.17435373 0.08211192 -0.31674984 0.08046383
0.19750713 -0.33107358 0.017486857 0.03210993 0.030985732 0.075368285 -0.066541955 0.22740933
-0.2412705 -0.0019706287 0.018095283 0.097774744 -0.151278 -0.07129239 -0.1325257 -0.18457124
-0.008749193 -0.16666107 0.1657489 -0.5147385 -0.072718546 -0.055947617 0.24321237 0.11403653
-0.10109646 0.380259 0.04208274 -0.023733791 -0.1341754 0.02299967 0.14621095 -0.16023007
-0.06105888 0.00624631 0.11335467 -0.26784205 0.0051801647 0.32356808 0.055001084 -0.08140218
-0.21961868 -0.07655001 0.2059887 -0.20915002 -0.114185914 -0.034433056 -0.04516782 0.077444315
-0.1614002 0.1533963 0.21832004 0.13404793 -0.36356643 0.19694798 0.22716448 0.06014428
-0.40343976 0.046595212 0.11991719 -0.034705937 0.14414759 -0.1517295 -0.042237397 -0.29463196
0.120380566 0.033079024 -0.34897897 0.53721565 -0.04330918 0.07084188 -0.18588097 0.0794077
-0.19016533 -0.25408524 -0.08006376 0.21293494 -0.1793423 -0.18461785 -0.15372343 0.22866751
0.019235622 0.0046484983 0.3548436 0.051934555 -0.06633133 -0.44329068 0.10029197 -0.17220546
-0.099295236 -0.08649928 -0.06157509 0.06950799 -0.1426057 -0.007882199 0.1185039 0.033884123
0.6578586 -0.37023526 -0.171405 0.056774437 -0.21094118 -0.22009031 0.10437785 -0.092161626
0.14657718 0.0059737256 0.26801392 -0.0020975592 0.02614896 -0.40022174 -0.07208556 -0.2515601
-0.13800368 0.32602456 0.44303074 -0.41118595 -0.042448394 0.022129096 0.36265114 0.011387666
-0.0011364789 0.42862695 -0.1271277 -0.08036213 -0.07660258 0.19671261 0.29123798 -0.17927794
-0.103299774 -0.14077167 -0.019560201 -0.023808545 0.24167562 0.083355956 -0.26816896 -0.10094555
-0.3555011 -0.18741101 0.16210721 0.30412483 0.06533694 0.05466558 -0.047791775 0.27347904
0.057716288 0.31537172 0.032475073 -0.022211753 0.064757094 0.06963689 0.05877177 -0.26868367
0.14771855 -0.24012752 -0.09427023 0.20056804 -0.13444701 -0.048038583 0.15168424 0.17971022
-0.1296704 -0.05449717 -0.013329512 0.1894904 -0.109505944 -0.1967811 0.080191195 0.027130447
-0.14633863 0.024831686 0.013198007 0.1362711 0.19117203 -0.019594204 0.15140735 0.057930417
-0.36182085 0.058046706 -0.07843178 0.042462338 -0.0055328957 0.26861647 -0.22257884 0.19634292
0.0593467 0.12656136 -0.07379336 -0.09758858 -0.055222582 -0.06555291 0.09988434 0.2562635
0.00015375222 0.024533475 -0.23104337 -0.03775326 0.25112915 -0.24446152 0.050797395 -0.14971048
-0.12910397 0.07945894 -0.16567437 -0.1419527 0.20316783 0.016941663 0.2853034 0.15840629
0.5739144 -0.08014808 0.4010728 -0.14577323 -0.27879107 -0.23010968 -0.10950939 -0.36325428
-0.018286064 0.060385305 -0.014281537 0.22233279 -0.19066033 0.20122997 -0.049151123 0.3616966
-0.046039827 -0.021369822 -0.22624397 0.31616747 -0.18710177 -0.2913218 0.1615948 -0.13452658
0.08812814 -0.16530013 -0.18014516 -0.03986948 -0.17894197 -0.09100568 -0.22912897 -0.06206234
-0.12352318 0.29216096 0.27406952 -0.118028924 -0.061770845 -0.17423554 0.21203879 0.0062688612
00000000: 5c62 b4be 95e8 84bd 4c23 813d 64d6 39bd
00000010: c989 323e 4b2a a83d 092d a2be 38ca a43d
00000020: 4f3f 4a3e 7a82 a9be 9940 8f3c b485 033d
00000030: cad5 fd3c b05a 9a3d 2647 88bd fedd 683e
00000040: 9d0f 77be aa25 01bb 8f3c 943c 203e c83d
00000050: 9fe8 1abe bf01 92bd d1b4 07be 3e00 3dbe
00000060: c658 0fbc 33a9 2abe 14ba 293e e7c5 03bf
00000070: 76ed 94bd 5429 65bd aa0c 793e fc8b e93d
00000080: a90b cfbd 4fb1 c23e f45e 2c3d 5e6d c2bc
00000090: 4765 09be ce69 bc3c 53b8 153e 5a13 24be
000000a0: e018 7abd d9ad cc3b 7e26 e83d 9822 89be
000000b0: 5fbe a93b b7aa a53e d148 613d 30b6 a6bd
000000c0: b8e3 60be 40c6 9cbd b4ee 523e 6c2b 56be
000000d0: 4eda e9bd ad09 0dbd e401 39bd 209b 9e3d
000000e0: 1846 25be eb13 1d3e 4a8f 5f3e dc43 093e
000000f0: 6125 babe bbac 493e ce9d 683e d959 763d
00000100: a88f cebe 9fda 3e3d 2597 f53d d027 0ebd
00000110: 6d9b 133e fa5e 1bbe 1f01 2dbd 00da 96be
00000120: 168a f63d df7d 073d 5fad b2be f786 093f
00000130: f764 31bd 8c15 913d 9557 3ebe 81a0 a23d
00000140: b3ba 42be 7617 82be 78f8 a3bd 9e0b 5a3e
00000150: 82a5 37be 760c 3dbe ad69 1dbe d127 6a3e
00000160: 0694 9d3c 6e52 983b 0fae b53e 54b9 543d
00000170: b8d8 87bd fff6 e2be e065 cd3d a156 30be
00000180: 4d5b cbbd 8926 b1bd 2936 7cbd 345a 8e3d
00000190: 3b07 12be 5724 01bc 2cb2 f23d 14ca 0a3d
000001a0: 6c69 283f 7a8f bdbe cb84 2fbe 508c 683d
000001b0: f700 58be 5b5f 61be 0ec4 d53d 3cbf bcbd
000001c0: 5418 163e 3ebf c33b 1f39 893e 3477 09bb
000001d0: 5836 d63c dde9 ccbe 98a1 93bd 7ccc 80be
000001e0: d650 0dbe b1ec a63e edd4 e23e f786 d2be
000001f0: 5ede 2dbd 1448 b53c 69ad b93e 5593 3a3c
00000200: e7f5 94ba fe74 db3e c42d 02be e794 a4bd
00000210: d0e1 9cbd 086f 493e 251d 953e a394 37be
00000220: d58e d3bd 7326 10be b73c a0bc 230a c3bc
00000230: d079 773e 87b6 aa3d 714d 89be 8abc cebd
00000240: 3d04 b6be ace8 3fbe 6fff 253e 40b6 9b3e
00000250: 60cf 853d 04e9 5f3d 4fc1 43bd 7205 8c3e
00000260: ea67 6c3d 6778 a13e 9504 053d 6cf5 b5bc
00000270: 5e9f 843d c99d 8e3d abba 703d e890 89be
00000280: 8843 173e fde3 75be c010 c1bd b561 4d3e
00000290: 7aac 09be 1bc4 44bd 1d53 1b3e f505 383e
000002a0: 51c8 04be 6d38 5fbd 0764 5abc c509 423e
000002b0: a744 e0bd fc80 49be 483b a43d ac40 de3c
000002c0: cbd9 15be d26b cb3c 743c 583c a78a 0b3e
000002d0: 9ac2 433e 0684 a0bc 870a 1b3e 7248 6d3d
000002e0: 9540 b9be 62c2 6d3d d7a0 a0bd fdec 2d3d
000002f0: 4b4d b5bb 1988 893e b5eb 63be 1e0e 493e
00000300: 8615 733d 4d99 013e f920 97bd 85dc c7bd
00000310: 1331 62bd 9b40 86bd 2990 cc3d f834 833e
00000320: 8c38 2139 6dfa c83c a296 6cbe 2aa3 1abd
00000330: 0094 803e 1f54 7abe ee10 503d b44d 19be
00000340: d533 04be 5ebb a23d 8ba6 29be 0c5c 11be
00000350: 3a0b 503e 3ec9 8a3c 4a13 923e 4235 223e
00000360: 0eec 123f ad24 a4bd 6a59 cd3e 9445 15be
00000370: b4bd 8ebe dfa1 6bbe 7646 e0bd 77fc b9be
00000380: a8cc 95bc 9556 773d 1cfd 69bc 35ab 633e
00000390: 763c 43be 3b0f 4e3e b052 49bd 4c30 b93e
000003a0: 4294 3cbd c40f afbc 80ac 67be b4e0 a13e
000003b0: 9b97 3fbe 2228 95be 1b79 253e 56c1 09be
000003c0: 877c b43d 7044 29be f977 38be 2e4e 23bd
000003d0: 903c 37be 3061 babd c9a0 6abe 1535 7ebd
000003e0: b9f9 fcbd 1f96 953e d752 8c3e 26b9 f1bd
000003f0: 6d03 7dbd cd6a 32be b220 593e 056b cd3b

onnx::GRU_111 f4 [1, 384, 128]
-0.3068984 -0.028719721 0.01218191 0.03455933 -0.1038234 0.115204684 0.10249313 0.2908401
0.24288064 0.14409192 -0.38304564 0.0058101094 0.4040612 -0.19603564 -0.27976775 0.02221759
0.06887735 -0.19177343 0.22076581 0.22350219 -0.08137433 0.17057237 -0.09707052 -0.50876486
0.04523519 -0.105604015 0.26783052 -0.05564604 0.35730568 0.23302914 0.08066019 0.008566535
-0.11649911 0.07901361 -0.17899257 -0.051637597 0.41740084 -0.13393278 -0.10075098 -0.16547723
0.25748333 0.14727528 -0.19070129 -0.07857719 0.5214779 -0.027158312 -0.06691524 -0.0030854389
-0.32840827 0.23438655 -0.21823303 -0.12112793 -0.796412 -0.122114114 0.36220628 -0.11670658
-0.17684545 0.057568546 -0.12045506 0.13893971 -0.32485625 0.15951256 0.26284215 -0.23778671
0.45505458 -0.21874334 0.22785155 0.006797829 0.16248205 -0.5944402 -0.10814653 0.05128266
0.31376266 -0.3057887 0.003939416 -0.15703022 -0.1543874 -0.09393652 -0.08942594 -0.19430256
0.20613006 -0.0029847377 0.11156124 -0.40701935 -0.01696808 0.039741714 0.3368954 -0.22146064
0.07293647 -0.31299534 -0.12732108 -0.33609506 0.20206621 -0.20392905 0.24249174 -0.199624
-0.038682394 0.24165314 -0.3367325 0.21381709 -0.20344692 0.21104749 -0.22533338 -0.112198696
-0.03956637 0.009830016 0.0112822605 -0.3109444 -0.2838748 0.066098355 0.07003369 0.2279576
0.37888876 -0.22682932 -0.026284602 0.25939336 0.077829845 -0.03541241 0.08748748 -0.21983238
0.08944705 -0.098864764 0.3076627 0.51722836 0.04295113 0.36782733 -0.25024796 -0.071372055
-0.18882519 -0.30645812 0.119682565 -0.08733679 0.28164405 -0.1526385 -0.090066634 0.3286994
0.056524314 -0.08192794 -0.060269844 0.15578076 0.03179724 -0.40417814 -0.2106841 -0.15195806
-0.3649589 -0.22453378 -0.061791606 -0.039383087 0.006510263 0.17206371 -0.3148267 0.08268314
0.3232151 0.18707895 0.08635765 0.033845574 0.32177374 -0.23247105 -0.098518506 0.0036833123
0.16662808 0.12206886 -0.15582915 0.5988955 0.37305096 -0.3502045 0.15100375 -0.1357181
0.034981217 0.24519418 0.3978204 0.0703663 0.034188632 -0.111784466 -0.24226728 0.12720853
-0.062150095 -0.15622741 0.16628931 0.2641971 -0.15808217 -0.12583119 -0.17030917 0.3977421
-0.11381226 0.08304714 0.3209632 -0.057453062 -0.02365155 0.06638349 -0.28285912 0.26933777
-0.09696833 0.16462716 -0.18539935 0.10397368 -0.1585027 -0.053036947 0.1513093 -0.18558143
-0.015927726 0.095735654 0.13988994 0.0016021446 0.25850722 -0.21771275 -0.28124765 0.11192977
-0.18364738 0.06251332 0.28438374 -0.031035569 0.003785684 0.08717051 -0.10667049 0.12170567
0.20598985 0.20446448 0.090786844 0.6456606 -0.19001533 -0.10188236 -0.1312544 -0.122227386
-0.08068612 0.1766826 -0.23346432 -0.20690629 0.20753533 -0.41147506 -0.72256863 -0.021621926
-0.27599537 0.04569957 0.070075005 0.17437287 -0.52295923 0.099129535 0.10483275 -0.22463444
0.082039885 0.019292433 -0.052206933 -0.2379264 -0.10393123 0.06862584 0.0070415214 -0.21373439
0.12611371 0.052679252 0.31788865 0.1459265 0.19139063 -0.022601856 0.18633954 -0.77253795
00000000: c921 9dbe 9f45 ebbc a296 473c 168e 0d3d
00000010: 5da1 d4bd 6ff0 eb3d ebe7 d13d fee8 943e
00000020: b4b5 783e d58c 133e 8f1e c4be bb62 be3b
00000030: 1ce1 ce3e 91bd 48be b83d 8fbe aa01 b63c
00000040: 910f 8d3d 4160 44be 6f10 623e c2dd 643e
00000050: 96a7 a6bd 86aa 2e3e e9cc c6bd 6a3e 02bf
00000060: 8948 393d eb46 d8bd 1521 893e 1aed 63bd
00000070: c5f0 b63e 319f 6e3e 2b31 a53d a75a 0c3c
00000080: 1697 eebd e3d1 a13d d449 37be f281 53bd
00000090: 90b5 d53e ad25 09be 8856 cebd dd72 29be
000000a0: dbd4 833e 55cf 163e 3347 43be 14ed a0bd
000000b0: 937f 053f 1c7b debc db0a 89bd 1335 4abb
000000c0: 2125 a8be 0703 703e 7b78 5fbe ec11 f8bd
000000d0: a8e1 4bbf f716 fabd 1a73 b93e dc03 efbd
000000e0: f916 35be ffcc 6b3d 24b1 f6bd 3646 0e3e
000000f0: 8f53 a6be 4357 233e 3f93 863e 5c7e 73be
00000100: eafc e83e 41fe 5fbe eb51 693e 53c0 de3b
00000110: b261 263e 3c2d 18bf ee7b ddbd c40d 523d
00000120: 80a5 a03e 5690 9cbe 3716 813b 88cc 20be
00000130: bb17 1ebe ca61 c0bd f224 b7bd 40f7 46be
00000140: c213 533e 979b 43bb 387a e43d d764 d0be
00000150: a500 8bbc 35c8 223d 8e7d ac3e 94c6 62be
00000160: b75f 953d ed40 a0be 7560 02be a714 acbe
00000170: 72ea 4e3e c7d2 50be c14f 783e 3c6a 4cbe
00000180: 6e71 1ebd ec73 773e 3468 acbe def2 5a3e
00000190: 6454 50be d51c 583e cbbd 66be 6ec8 e5bd
000001a0: 5910 22bd 130e 213c 3bd9 383c 1b34 9fbe
000001b0: 0a58 91be 935e 873d d36d 8f3d b86d 693e
000001c0: b5fd c13e f245 68be ce52 d7bc 35cf 843e
000001d0: 4165 9f3d 9a0c 11bd a32c b33d bd1b 61be
000001e0: 0430 b73d 9c79 cabd f785 9d3e 1469 043f
000001f0: 86ed 2f3d dd53 bc3e 8020 80be 832b 92bd
00000200: 645b 41be 14e8 9cbe 221c f53d a2dd b2bd
00000210: a633 903e 444d 1cbe db74 b8bd 4a4b a83e
00000220: 0a86 673d d6c9 a7bd 83dd 76bd fe84 1f3e
00000230: d33d 023d 70f0 cebe 93bd 57be e59a 1bbe
00000240: e5db babe 2fec 65be 3219 7dbd 2950 21bd
00000250: 0b54 d53b 7831 303e f730 a1be c755 a93d
00000260: 737c a53e a091 3f3e 48dc b03d a8a1 0a3d
00000270: 87bf a43e e40c 6ebe 12c4 c9bd ba63 713b
00000280: 8da0 2a3e 3dff f93d ad91 1fbe 3751 193f
00000290: 8900 bf3e 014e b3be baa0 1a3e b0f9 0abe
000002a0: 7748 0f3d 2f14 7b3e 1eaf cb3e 351c 903d
000002b0: 6109 0c3d 41ef e4bd ea14 78be f442 023e
000002c0: 1991 7ebd 14fa 1fbe bf47 2a3e d844 873e
000002d0: 4be0 21be e4d9 00be 8765 2ebe daa4 cb3e
000002e0: 6716 e9bd 9e14 aa3d 4a55 a43e e753 6bbd
000002f0: e5c0 c1bc 11f4 873d e9d2 90be a4e6 893e
00000300: 5597 c6bd 0694 283e 54d9 3dbe 27f0 d43d
00000310: 884e 22be 453d 59bd d3f0 1a3e 0f09 3ebe
00000320: dd7a 82bc 0e11 c43d 4f3f 0f3e 0dff d13a
00000330: 0f5b 843e 17f0 5ebe b1ff 8fbe 6f3b e53d
00000340: 0f0e 3cbe fc06 803d bf9a 913e 4e3e febc
00000350: 3d19 783b 7486 b23d 0f76 dabd d340 f93d
00000360: 01ef 523e 235f 513e 74ee b93d 034a 253f
00000370: 6193 42be b3a7 d0bd 8e67 06be 5a52 fabd
00000380: c43e a5bd 49ec 343e 4511 6fbe 3edf 53be
00000390: 2484 543e dcac d2be 42fa 38bf 7720 b1bc
000003a0: 444f 8dbe 792f 3b3d 7c83 8f3d cd8e 323e
000003b0: a8e0 05bf 6d04 cb3d 8eb2 d63d 9206 66be
000003c0: 8704 a83d 2a0b 9e3c f0d6 55bd faa2 73be
000003d0: e6d9 d4bd b48b 8c3d 90bc e63b 30dd 5abe
000003e0: f423 013e 33c6 573d 4dc2 a23e c26d 153e
000003f0: e8fb 433e 8727 b9bc cbcf 3e3e 0cc5 45bf

onnx::GRU_112 f4 [1, 768]
-0.08081078 -0.12152479 -0.29860926 -0.15206727 -0.12408796 0.028607951 -0.032414563 0.15642568
-0.40120822 0.030969102 -0.14918628 -0.42633817 -0.17132086 -0.13464026 0.14496611 -0.27024657
-0.1188883 0.1305735 -0.11968157 -0.4046769 -0.33494917 -0.30723995 -0.20890202 0.0702751
-0.26787496 -0.23154439 -0.2321414 -0.25053802 -0.019761097 -0.3675224 0.12122237 -0.24034168
-0.14668442 -0.018260662 -0.12007325 -0.19555962 -0.23659173 -0.18585467 -0.19284701 -0.3675745
-0.013698844 -0.03565262 -0.06361513 -0.10909119 -0.2823168 0.19294675 -0.15614285 -0.030898245
0.36066929 -0.15995629 -0.29531154 -0.014080865 0.05395573 -0.33524308 -0.2252821 -0.23587771
-0.17324887 -0.25003415 -0.037075132 -0.21834472 0.23705775 -0.052243613 -0.27428734 0.1517532
-0.1814184 -0.34602627 0.18991828 -0.159635 -0.0390271 -0.1776302 -0.024901688 -0.28486282
-0.36060572 0.047013637 -0.28841805 0.04071958 -0.36770022 -0.2298094 -0.23073815 -0.3339629
-0.16174011 0.15352602 -0.24481021 -0.21319397 0.030890575 -0.11182845 0.079521194 -0.31884184
-0.2063451 -0.15630691 -0.31230146 -0.1579499 -0.034151644 -0.26835275 -0.17406623 -0.39811608
0.0182969 0.16023318 0.011068903 -0.34185803 -0.39108506 -0.21922728 0.025294434 -0.01855061
-0.1635597 -0.11792874 -0.27618667 -0.13503279 -0.15787375 0.009625623 -0.39742234 -0.21672042
-0.14913686 -0.1347119 -0.2731206 0.070676684 0.12173324 -0.059058238 -0.34767148 -0.15439422
-0.0471512 -0.06471598 -0.36053604 -0.2365554 -0.3293661 -0.12630917 0.004159134 -0.25997368
0.08880372 -0.055097718 0.091118746 0.07161778 0.17562136 0.28127387 0.12541273 0.06873023
0.024250122 -0.0807457 0.0024096256 0.13822414 -0.036519706 0.12787512 0.14995909 0.26240656
0.04290904 0.1554226 0.09521474 0.05103046 -0.0019233575 0.103404626 -0.05861072 0.081852354
0.092333145 0.2014375 -0.0007568303 0.13509111 0.17016004 0.13624199 0.06441426 0.07197803
0.13846084 0.13955165 -0.013294717 0.2868668 0.25035894 0.09047607 0.33561975 0.11577368
0.077660725 -0.054126445 0.024040833 -0.033852406 -0.0044045844 0.11057802 -0.04530886 0.04667012
0.41452366 0.12974893 -0.006957733 0.033671267 0.27943486 0.09041299 0.11976744 0.035647806
0.15902713 0.052251723 0.15847604 0.028455641 0.23349094 0.061448757 -0.07225126 0.04767694
0.1648479 0.067460984 0.19128317 0.16951206 -0.016035676 0.036953427 0.077811874 -0.011818651
-0.054399483 0.021100726 0.061179545 0.03257728 0.15616772 0.09945071 -0.012388517 0.1855933
0.21301638 -0.054062173 0.17313886 0.012086478 0.10636081 0.02905609 0.23540466 0.051951084
0.001445083 0.059063777 0.039009094 -0.008868106 -0.055454534 -0.0061081722 0.16762218 -0.012639519
0.21781759 0.07230359 0.15635571 0.10727063 -0.054889098 0.09312493 -0.015848206 0.09516442
0.080760114 0.11195288 0.091225155 0.057640474 0.10694978 0.21594156 0.09422173 0.016791197
0.013121712 0.1131999 -0.04162778 0.099601455 0.008102092 0.047561817 0.045856692 0.02270456
0.21238583 -0.05497289 0.057859033 0.13512078 0.09214422 0.06613232 0.028568208 0.1033351
00000000: 1f80 a5bd fde1 f8bd 50e3 98be 86b7 1bbe
00000010: d421 febd 395b ea3c 22c5 04bd 0e2e 203e
00000020: 2a6b cdbe eab2 fd3c 4ac4 18be ff48 dabe
00000030: bc6e 2fbe 23df 09be ff71 143e c25d 8abe
00000040: b67b f3bd 0fb5 053e 9c1b f5bd d031 cfbe
00000050: 757e abbe 8e4e 9dbe 69ea 55be 64ec 8f3d
00000060: e826 89be f919 6dbe 7ab6 6dbe 8546 80be
00000070: 06e2 a1bc e52b bcbe 6f43 f83d 211c 76be
00000080: 7134 16be 6297 95bc f7e8 f5bd c840 48be
00000090: 1a45 72be b050 3ebe b079 45be ba32 bcbe
000000a0: 1e71 60bc 7b08 12bd a648 82bd 346b dfbd
000000b0: d48b 90be d593 453e e9e3 1fbe 511e fdbc
000000c0: a5a9 b83e 95cb 23be 1333 97be 6eb3 66bc
000000d0: af00 5d3d fba4 abbe 5ab0 66be ed89 71be
000000e0: 2768 31be 7a04 80be 18dc 17bd c295 5fbe
000000f0: 44bf 723e 66fd 55bd 646f 8cbe 3165 1b3e
00000100: bfc5 39be 5b2a b1be f079 423e 5c77 23be
00000110: e1da 1fbd b1e4 35be a0fe cbbc 8ad9 91be
00000120: 50a1 b8be 5f91 403d 88ab 93be 93c9 263d
00000130: 3443 bcbe 2853 6bbe 9f46 6cbe 2ffd aabe
00000140: 339f 25be ed35 1d3e 87af 7abe 854f 5abe
00000150: 3b0e fd3c 5006 e5bd 02dc a23d 3d3f a3be
00000160: 214c 53be eb0e 20be fae5 9fbe 9ebd 21be
00000170: 98e2 0bbd 8865 89be 6b3e 32be dfd5 cbbe
00000180: 61e3 953c 2b14 243e 585a 353c 0408 afbe
00000190: 4d3c c8be 1e7d 60be 4636 cf3c 73f7 97bc
000001a0: 327c 27be a084 f1bd 5768 8dbe 0946 0abe
000001b0: a8a9 21be cab4 1d3c f17a cbbe f5eb 5dbe
000001c0: 55b7 18be ebf1 09be 77d6 8bbe f0be 903d
000001d0: 474f f93d 0de7 71bd ff01 b2be 8519 1ebe
000001e0: 9e21 41bd d089 84bd 2e98 b8be 943b 72be
000001f0: aca2 a8be 3157 01be 5849 883b 451b 85be
00000200: bade b53d 25ae 61bd 779c ba3d 58ac 923d
00000210: 16d6 333e 2103 903e 326c 003e 6fc2 8c3d
00000220: 31a8 c63c 005e a5bd cfea 1d3b a18a 0d3e
00000230: b095 15bd b2f1 023e e08e 193e 275a 863e
00000240: 64c1 2f3d 1a27 1f3e f2ff c23d 5105 513d
00000250: 2b19 fcba cec5 d33d cb11 70bd 35a2 a73d
00000260: 2919 bd3d a245 4e3e 0666 46ba 5355 0a3e
00000270: 6f3e 2e3e 0583 0b3e a0eb 833d 3869 933d
00000280: aec8 0d3e a1e6 0e3e 16d2 59bc 35e0 923e
00000290: 0c2f 803e 854b b93d 5ad6 ab3e c01a ed3d
000002a0: 960c 9f3d b1b3 5dbd 48f1 c43c d2a8 0abd
000002b0: 5554 90bb bb76 e23d c895 39bd 2b29 3f3d
000002c0: 723c d43e e7dc 043e b2fd e3bb e2ea 093d
000002d0: 1612 8f3e 722a b93d a248 f53d 6f03 123d
000002e0: 02d8 223e e705 563d 8b47 223e ce1b e93c
000002f0: 4018 6f3e b1b1 7b3d 78f8 93bd e548 433d
00000300: e3cd 283e fc28 8a3d bcdf 433e 9294 2d3e
00000310: 405d 83bc 7a5c 173d d55b 9f3d 04a3 41bc
00000320: fed1 5ebd 6edb ac3c 6797 7a3d c16f 053d
00000330: 6eea 1f3e d0ac cb3d 35f9 4abc 2c0c 3e3e
00000340: f720 5a3e 4c70 5dbd 504b 313e 5d06 463c
00000350: b2d3 d93d 0a07 ee3c eb0d 713e a9ca 543d
00000360: f068 bd3a dcec 713d 00c8 1f3d 884b 11bc
00000370: 4b24 63bd 1027 c8bb 26a5 2b3e fc15 4fbc
00000380: 930b 5f3e e813 943d b61b 203e b4b0 db3d
00000390: 64d3 60bd 49b8 be3d 19d4 81bc 90e5 c23d
000003a0: 8f65 a53d 8d47 e53d 41d4 ba3d 6b18 6c3d
000003b0: 7c08 db3d c91f 5d3e 53f7 c03d b18d 893c
000003c0: 73fc 563c 59d5 e73d e481 2abd d9fb cb3d
000003d0: a3be 043c 2ed0 423d 3ad4 3b3d eafe b93c
000003e0: ac7b 593e 412b 61bd 98fd 6c3d 1a5d 0a3e
000003f0: 1cb6 bc3d 6270 873d e007 ea3c 5aa1 d33d
