public/model/tricks_gru.onnx (onnx, 367209 bytes, 6 tensors)

embed.weight f4 [87, 64]
00000000: 93e3 9a3d 37ea 2b3f bf6f 08bf bf4f 90bf
00000010: 117d 503f f923 be3e 6e32 bdbe 395e 6cbf
00000020: f1a9 99be e1a6 8b3f cb0b ec3e e85e df3e
00000030: 62cf ca3f 29e0 c13f 6769 603e d216 04bf
00000040: b672 203d cbe8 b73f 9e58 543f ece1 24be
00000050: dbe3 f03e d3d8 aa3f a84c 323e 3f0a a3bc
00000060: d933 02be f5a1 0abf 1b88 12bf 51f8 19be
00000070: 77e0 313f ffd3 c23f 4f85 eabe fa58 65bf
00000080: e91b 863f 5a59 30bf 59b6 a6bf 06b3 583e
00000090: 3f7d 08be e95b 1ac0 4195 c4bf 7e82 d2bf
000000a0: 9249 12be 867c 193e 8f55 823f cca7 92bf
000000b0: dbf0 35bf 7e5e 65bf bd10 12bf 9ad8 7b3f
000000c0: a69f e8bd 8e35 bfbf b3df 8fbf d1ff 0a3f
000000d0: 6a16 b8bf 56ff 77bf 85b9 693e 05ab 59bf
000000e0: f842 863c cd68 a13e e877 c73f c909 8abe
000000f0: 342b babf 63b1 cb3f b804 80bf 53f0 bf3f
00000100: c616 8cbf 78f1 9c3f a83c 4cbe 69a2 b33f
00000110: 059f c2bf 7522 fe3e 0aec 5b3d 4796 4a3d
00000120: 809e 1ec0 84a7 ba3f facb e1be ec44 653e
00000130: cf7b 3cbf c2c4 c1be 37e9 413e ddf7 083f
00000140: 0d93 c1bf af90 98bf 949a e6be 5cfc 91bf
00000150: 0af2 adbd da05 3e3e 6fc7 c9bf 14ba bdbe
00000160: 1f68 8ebf 01be a6bf 165c 1d3f ee0d 863e
00000170: c31c 993d 94dc d43e bd43 e9bf ebe4 833f
00000180: d417 f83e 580d 233f 7757 afbf 6ee5 59bd
00000190: 2763 513f f8c4 133f 25e8 8cbd 943e c1bf
000001a0: c839 04bf 41f1 383f 0955 61be 101b fe3d
000001b0: a416 85bd 2b10 953c b41d cb3e 5cb0 a63f
000001c0: 9255 3f3d e40c 9fbe 2e1a 533e 736b 013f
000001d0: 8de8 02bf 4007 1abf db97 d13f d9d8 3540
000001e0: 72d9 cbbf 6fd2 80bf 11d2 90bf b1bf 4abf
000001f0: 1ea5 abbf 191e f4bf 4fb6 f03e f2e9 313f
00000200: 64e4 1abe c270 243f 76a2 1f3f 2ccd 7a3e
00000210: 5097 a43c c86c 533f f787 4c3e c64b abbf
00000220: bf5a 0c3f c589 44be 7f8e 45be a271 52bf
00000230: c9d9 863f c398 bbbe 028b 5d3f a57e 5140
00000240: 6b7e b4be fa55 bebe 0162 493f e2ef 09be
00000250: bd75 213f bfdd b6bf f669 353f 44b0 b5bf
00000260: b6fa a43e 2565 2fbe 69a0 22bf c5c1 a2be
00000270: e18a e0be 21a9 4c3e 2363 8fbf 450d a83f
00000280: 6e7a 123f d514 1fc0 8eb3 3bbd 9fe4 153f
00000290: 8ad3 e4bf c731 833f a5d1 a0bf 841e 21bf
000002a0: 3c8c 13bf 20c3 8dbf e116 7d3f 15a4 c43f
000002b0: a4bd 2b3e ddc1 4bbf f5ec 0e3f 9576 a03f
000002c0: f55d 253f 1908 71bd edee a23f 7766 13c0
000002d0: 2e1e 88bf a175 d3be edfd babf 1ade 3cbe
000002e0: 72af c5bf 4b0e 2b3f 151c 7cbf 9253 25be
000002f0: abf6 a23f 5ad5 40bf 88b0 823e 2492 8f3e
00000300: 08c3 b83f 5b29 983e 9aa7 fa3f 450c ff3e
00000310: 9e2e 323f 65c4 753f be2a c1bf 32ae d3be
00000320: eb31 d93f 8c91 c53e bf56 04be 9fb5 62be
00000330: 6880 cebd 333f a63f 6258 163f 5969 59bf
00000340: f920 d6bf b15f 5cbf 3634 723f fbba bb3d
00000350: 19e4 1ebf 99e4 a73d 6c40 52bf 33bf bebf
00000360: d88a 813e 2f8e 933d e785 71be 051a 24bf
00000370: b4e0 08c0 d415 c2bf 6935 2640 c8b4 0a3f
00000380: e388 443f 2287 d53f 9353 c7bf 52a4 cfbe
00000390: 4de2 513f a800 1040 d1f1 b23f b043 1bc0
000003a0: 62ac 723f dca2 993f 7203 8b3f 812a 4ebf
000003b0: 814b ff3e 7c9d b43f a494 e7bd fa0a 16be
000003c0: 91ff 4bbf b055 9ebe 26a5 723f 33ff adbe
000003d0: 5073 a73e a3d6 99bf facb f7be 4841 ccbe
000003e0: a965 783f 06b3 993e 650a 72bf 015c b2bf
000003f0: f313 adbf a751 943f 7eb0 dc3d 135d 2fbf
0.075629376 0.6715426 -0.5329551 -1.1274337 0.81440836 0.3713682 -0.36952537 -0.9233127
-0.30012468 1.0910302 0.46102747 0.43627095 1.5844538 1.5146533 0.21915208 -0.5159732
0.039171897 1.4367918 0.8294772 -0.16101807 0.4704884 1.334742 0.17412055 -0.019902347
-0.12715091 -0.54153377 -0.5723893 -0.15036131 0.6948313 1.5220946 -0.4580483 -0.8958889
1.0477268 -0.6888634 -1.3024398 0.21162042 -0.13329028 -2.4118598 -1.5358049 -1.6446073
-0.14285877 0.14988908 1.018236 -1.1457458 -0.7107064 -0.8959731 -0.5705679 0.9837738
-0.113585755 -1.4938219 -1.1240143 0.54296595 -1.438184 -0.96873987 0.22824676 -0.8502658
0.016389355 0.3152527 1.5583467 -0.2696059 -1.4544435 1.5913509 -1.000144 1.4995216
-1.094445 1.226119 -0.19945014 1.4033939 -1.5204779 0.49635664 0.0536919 0.049459722
-2.478424 1.4582372 -0.44100934 0.22389573 -0.73626417 -0.37845427 0.1893662 0.5350321
-1.5123001 -1.1919154 -0.4503981 -1.1405139 -0.08493431 0.1855692 -1.5763987 -0.3705603
-1.1125525 -1.3026735 0.61468637 0.26182503 0.07476189 0.41574538 -1.8223797 1.0304235
0.4845568 0.63692236 -1.3698567 -0.053197317 0.8179192 0.57722425 -0.068802156 -1.5097222
-0.5165067 0.72243124 -0.22005095 0.124075055 -0.06498459 0.018196186 0.396711 1.3022571
0.046712466 -0.31064522 0.20615456 0.5055458 -0.51136094 -0.6016731 1.6374468 2.8413603
-1.5925734 -1.0064219 -1.1314107 -0.7919875 -1.3409765 -1.9071685 0.4701409 0.694976
-0.15126187 0.64234555 0.6235727 0.2449233 0.020091683 0.8258786 0.19973741 -1.3382499
0.5482597 -0.1919318 -0.19292639 -0.8220464 1.0535213 -0.36639985 0.86540234 3.2733548
-0.352527 -0.3717497 0.7866517 -0.13470414 0.6307028 -1.4286422 0.7086481 -1.4194417
0.32222527 -0.17128427 -0.63526016 -0.3178846 -0.43855956 0.19986393 -1.1202129 1.312905
0.5721806 -2.4856465 -0.045825534 0.58551973 -1.7877057 1.0249566 -1.2563978 -0.6293719
-0.57635856 -1.1075172 0.98863035 1.5362574 0.16771561 -0.79592687 0.5583032 1.2536188
0.6459649 -0.058845613 1.2729164 -2.303129 -1.063421 -0.4130068 -1.4608742 -0.184441
-1.5444167 0.66818684 -0.9848035 -0.16145161 1.2731527 -0.7532555 0.25525308 0.28041184
1.4434519 0.29719052 1.9582398 0.49814048 0.6960238 0.960028 -1.5091169 -0.41343838
1.6968359 0.38587606 -0.12923716 -0.22139595 -0.10083085 1.2988037 0.5872861 -0.8492637
-1.6728812 -0.86083513 0.9461092 0.09166523 -0.620668 0.081978984 -0.8212955 -1.4902099
0.25301242 0.07204854 -0.23586236 -0.641022 -2.1387148 -1.5162911 2.59701 0.541821
0.7677137 1.6681864 -1.557238 -0.40555054 0.8198593 2.25004 1.3980047 -2.4260063
0.94794285 1.2002826 1.0860426 -0.80533606 0.49862292 1.411056 -0.11307648 -0.14652625
-0.7968684 -0.3092475 0.94783247 -0.33983764 0.32705164 -1.2018627 -0.4839781 -0.39893556
0.9703012 0.30019397 -0.9454711 -1.3934327 -1.3521713 1.1587418 0.10775851 -0.68501395

fc.weight f4 [87, 128]
00000000: 9382 60be ecad 763e 55ee 3e3e cdd6 e4bd
00000010: b1b2 b2be fca0 333e 26e6 1fbd 10d8 81bb
00000020: d6d2 193e 1975 3dbe 876a cb3d c6b7 f4bd
00000030: 3957 b0be 1af8 4a3e 1857 a0bc df21 d33d
00000040: 5a60 06be 5517 1abc a88a 95be b562 283e
00000050: 7714 b03e 1443 b6bd 86a1 a5be 7a13 a3be
00000060: fedf 363e feb1 36be 9c37 4b3d ee59 08bf
00000070: 91bd 85be dcd4 83be 65c3 10be 2a4c 87be
00000080: 7905 a03c c0cf 3b3d 2a47 89bd ada5 5d3e
00000090: 5ead 963e a768 3dbd 3037 41be 9289 293e
000000a0: 3c9f 24be f2b9 17be c8ce 80be 0b57 cbbe
000000b0: 1d53 e4bd 706e 0dbe 3c5e 8a3e dfed 04be
000000c0: d331 f83e 8fb9 ba3c dee5 e7bd 5aa5 003e
000000d0: 3234 95bd 4d67 98bd 1f39 db3c 7250 3abd
000000e0: 98b7 8fbd 2b05 a6be 085c a2be fbf5 aabd
000000f0: ec65 293c 5cda cd3d 7011 703c f6dc a53e
00000100: c514 adbe 75cb e8be cbc3 843e df3b f4bc
00000110: b77d de3d ac80 b5bd 0a6e 85bd ef89 a23e
00000120: 342d 073e 665f 433e 1349 85bc 18fb 8a3e
00000130: d5c8 e1bd 61c8 86bd ea1c d73d 6c23 963d
00000140: d63a 2f3e fcd2 8fbe 1b19 14be 2285 05be
00000150: e640 0e3e 3563 173e 482e d33e 6fdd cabd
00000160: 4d69 e53e 531c 1a3e 56ad b5bc 99e7 743c
00000170: a752 55be a484 b8bd aec8 f93d dc6e af3d
00000180: 65d2 02bc 5d72 12be 44ad 4abe 9951 8d3d
00000190: 3188 053d 867e d3bc 933c 8e3d 1f6b 81bd
000001a0: 2451 8dbe 669d 343d 1276 31be 0560 3fbd
000001b0: 5681 763d 27c0 d0bd 9a0d 30bd 2b3d 663c
000001c0: 0a05 013f fa37 43bc a8cb 993d 07ae 513e
000001d0: 3ef2 98be 0f00 bdbd a73c 59bd 267e 71bb
000001e0: 4c74 9dbd 3681 2a3e 67c1 60be 3744 22be
000001f0: f5b8 ee3b 8d24 0b3e 1b8c 5fbd d4c5 c0bc
00000200: bf17 f2bd 7a60 cc3e 1fec e3bd c99c 35be
00000210: dfda 59be 2fad 6d3e 97a3 69be 978e e8bd
00000220: 4cf7 873d 6425 c7bd 4099 98bc 9af4 8abe
00000230: 5d07 f9be 0a2c 633e 0218 4ebe c416 5b3e
00000240: 3d05 97be 8635 77bd 9675 1fbe 4507 023e
00000250: 03f1 dc3d abf7 a6bd 4343 42be b1a5 5abe
00000260: dd03 813e bbf4 23be b5de 813e e67f bcbd
00000270: 9c79 cbbd 1b93 2dbe 2cb8 cfbd 7550 79be
00000280: 527a 3fbe ec60 dcbc 45b2 14be 9188 733d
00000290: e5e3 1a3d cdbe 403c db10 80bd 967e 033e
000002a0: 3b9e 4dbe 059a 15be 82fe 29be af27 b5be
000002b0: 79ec 6fbe 0f3f 5ebd fd8f 833e ee07 7ebd
000002c0: 832a f13d b8af ec3c 9f15 793d 31fd 573e
000002d0: 6f21 6c3e cf25 cdbe fdf0 4d3e 00ae 9ebe
000002e0: ab12 283e f4bb 2cbe 6d49 4abe 7e29 45be
000002f0: 5ee2 cdbb 1ede b6be d92d 95be 6cf0 553e
00000300: f960 90be 8ac0 68be ef50 8d3e 3008 d03d
00000310: 1f91 253d 9dbb c3bd 44dd d3bd d5b8 7f3e
00000320: 40ce 8b3e 3c97 853e 1131 0d3d 8bfa 443e
00000330: 24cb 2ebe da72 0d3e fc92 5abe 682a 3c3e
00000340: bf19 9e3e 1a55 08be e7d1 a53e f890 223e
00000350: f1da 1c3e ff5a 5c3e 19fd c83e 02ce 9abe
00000360: be8c a03e 3699 1ebd dba9 ae3e 074c bdbb
00000370: a6f7 7fbe cade 463b 04aa 993d 2aab 653e
00000380: 0fa1 e63d b72e 1cbe fc2b 3ebe 80a6 b33e
00000390: 9e80 c43d 796b 303e c75d a53e 25d6 33be
000003a0: 683b 12be 2c74 3c3e 3f40 01bd 86e0 203e
000003b0: 397b 5dbd 57c7 203c aa6e bbba b8ba 0f3e
000003c0: e62f 883e 8197 1c3e d54d 593d 9381 8d3e
000003d0: 5462 82be c065 e3be 7a16 9bbe c755 b7bd
000003e0: 3a80 82be 3c08 343c 001d 73bb b210 87be
000003f0: c1ab 42bd 6806 673e 8e35 58be f617 25be
-0.2192481 0.24089783 0.18645604 -0.111737825 -0.34901956 0.1754188 -0.039037846 -0.0039625242
0.15021834 -0.185017 0.09932428 -0.119491145 -0.34441546 0.19821206 -0.01957278 0.10309195
-0.13122693 -0.009404977 -0.2920735 0.16443904 0.34390613 -0.08899513 -0.32349795 -0.31850797
0.17858884 -0.17841336 0.04961358 -0.5326222 -0.2612119 -0.25748336 -0.14137037 -0.26425296
0.01953386 0.045852423 -0.067030266 0.21645232 0.29429144 -0.046242382 -0.18868709 0.16556385
-0.16076368 -0.14817026 -0.25157762 -0.39714846 -0.11148665 -0.1381166 0.2702502 -0.12981366
0.48475513 0.02279356 -0.113231406 0.12563077 -0.07285346 -0.07441578 0.026760636 -0.045486875
-0.070174396 -0.32425818 -0.3171084 -0.08347698 0.0103392415 0.10051414 0.014652595 0.32395142
-0.33804908 -0.45467725 0.25930628 -0.029813705 0.10863822 -0.08862433 -0.06515129 0.3174586
0.13200837 0.1907936 -0.016270196 0.27144694 -0.11024634 -0.06581188 0.10503562 0.07330975
0.17112288 -0.28090656 -0.14462702 -0.13039067 0.13891944 0.14783938 0.41246247 -0.09905516
0.448069 0.15049867 -0.02217738 0.014947795 -0.2083231 -0.09009674 0.1219648 0.085660666
-0.007984732 -0.14301439 -0.19792658 0.06900329 0.032600585 -0.025817167 0.06945147 -0.0631926
-0.27600968 0.04409542 -0.17330196 -0.04672243 0.060181938 -0.101929 -0.04298172 0.0140526695
0.50398314 -0.011915201 0.075095475 0.20476542 -0.29872316 -0.09228527 -0.05303636 -0.0036848872
-0.076881975 0.16650853 -0.21948777 -0.15846334 0.007285232 0.13588162 -0.054576974 -0.023531832
-0.118209355 0.39917356 -0.11129021 -0.1773559 -0.21274899 0.23210596 -0.22816311 -0.11355322
0.06638965 -0.097239286 -0.018627763 -0.2713974 -0.4863843 0.22184768 -0.20126346 0.21395403
-0.29496184 -0.06035378 -0.15572199 0.12698086 0.10788157 -0.08152708 -0.18970971 -0.21352269
0.2519826 -0.16011326 0.25365224 -0.09204082 -0.099353045 -0.16950648 -0.1014255 -0.24347098
-0.18699005 -0.026901685 -0.1452113 0.05945641 0.037814993 0.01176424 -0.06253215 0.12841257
-0.20079891 -0.14609535 -0.16600993 -0.3538184 -0.23430051 -0.054259356 0.25695792 -0.06201928
0.117756866 0.028892383 0.060811635 0.21092679 0.23059629 -0.40067908 0.20111461 -0.30992126
0.16413371 -0.16868573 -0.19754572 -0.1925411 -0.0062830886 -0.35716337 -0.2913654 0.20892495
-0.28198984 -0.22729698 0.2760081 0.10157812 0.0404216 -0.09557269 -0.103449374 0.24972852
0.27305794 0.26091945 0.03447062 0.192362 -0.1706968 0.13813344 -0.21345133 0.18375552
0.30879018 -0.13313714 0.32386705 0.15875614 0.15317895 0.21519087 0.39255598 -0.30235296
0.31357378 -0.038720332 0.34113964 -0.0057768854 -0.24996814 0.0030345195 0.07503131 0.22428575
0.11261188 -0.15252195 -0.18571466 0.35087967 0.09594844 0.17228498 0.3229811 -0.17562158
-0.14280474 0.18403691 -0.03155541 0.15710649 -0.054072592 0.009813151 -0.0014299948 0.14036071
0.26599044 0.15292169 0.053052742 0.2763792 -0.25465643 -0.44413567 -0.30290586 -0.089519076
-0.25488454 0.010988291 -0.0037096143 -0.26379925 -0.04752708 0.22561038 -0.2111418 -0.16122422

fc.bias f4 [87]
00000000: 85ae 79be a7ed 2bbe 1a92 443c 3206 ebbc
00000010: b160 31bd 6d04 17bd 17a1 173e 8e5e 173d
00000020: facd 183d df4d ffbd 7f3f 5fbe e859 e9bd
00000030: 83cc 74be 21ba 3f3d 1bf9 52be 08c9 91bd
00000040: ddc8 ffbd cf64 7abc 14b7 1bbe e8d1 db3d
00000050: 9a82 d6bc 83bc 84be f756 45be 6e80 49be
00000060: 9e64 37be f8ff 8fbd 9135 8fbd 9708 76bc
00000070: 81aa d8bd 2991 bdbd 17b1 19be 1c5a e93b
00000080: 37c6 13be 49ac 5abe 27c8 edbd 5547 88be
00000090: 6af0 2bbe 4682 74be a1a7 fcbd 15bf a4bc
000000a0: 07c7 84bd a244 30be 2587 8a3b 2e7e 23be
000000b0: 8824 97bd 85bd 1fbe 334f 51be 09fe 03be
000000c0: 1fa0 7fbd c7c0 33be 7e03 56be ce13 bd3d
000000d0: af09 d8bd c227 c3bc d826 a2be 1c62 14be
000000e0: 6238 043d c155 e0bc 1d9f 61be cd32 19be
000000f0: f3a0 303e 409f 58bd 7534 a23d a056 9e3c
00000100: 1e91 7bbc e76d 37be 3ccc 4ebc 8c49 d2bd
00000110: 0c46 47bc 6d57 0fbe bd80 8b3a 0e45 65be
00000120: 16de 07be bd8c a9bc 62a4 a63d 4010 1c3e
00000130: c4ad 09be 83b3 1e3e d588 a13d a814 40bd
00000140: 4e7b 29be c5ed d3bd 9657 a9bd a3e8 07be
00000150: 5e88 d63c a160 c03d cb1c 4bbe
-0.2438298 -0.16789876 0.011997724 -0.028689478 -0.043305103 -0.036869455 0.14807545 0.03695541
0.03730581 -0.124660246 -0.21801566 -0.113941014 -0.2390614 0.046808366 -0.20602839 -0.07118422
-0.124894835 -0.015282824 -0.15206558 0.10733396 -0.026185323 -0.25925073 -0.19271456 -0.19677898
-0.17909476 -0.07031244 -0.06992639 -0.015016696 -0.10579396 -0.09256203 -0.1500896 0.0071213376
-0.14431082 -0.21354784 -0.11610442 -0.26616922 -0.1679093 -0.2387782 -0.1233666 -0.020110646
-0.06483274 -0.17213681 0.0042275363 -0.15966102 -0.07380015 -0.1559964 -0.20440368 -0.12889875
-0.062408563 -0.17554007 -0.2089977 0.09232293 -0.10548722 -0.023822669 -0.3167026 -0.14490551
0.032280333 -0.02738464 -0.22033353 -0.14960785 0.17248897 -0.052886248 0.07920162 0.019328415
-0.015354423 -0.17913018 -0.012621935 -0.10267934 -0.012162697 -0.13998194 0.0010643225 -0.22389624
-0.13268313 -0.020696992 0.08136822 0.15240574 -0.13445193 0.15498166 0.07887427 -0.0468947
-0.16550943 -0.10348085 -0.08268659 -0.13272338 0.026188072 0.093934305 -0.19835202

onnx::GRU_110 f4 [1, 384, 64]
00000000: 6a1c bf3e b051 00bc 0520 22bd 4cf9 c73d
00000010: 5dba e93c 2c76 a0bd 1bec 84be 5821 9bbe
00000020: 2f14 a23c d47c 85bd 4b57 0bbe 712c 7e3e
00000030: a315 7c3e ca27 5abd e05f 223e 6777 0bbe
00000040: 7d6f 3a3c a93c 41be 964b b33b 0ff8 5bbe
00000050: 54bb cd3d ae2f 943e 8daa e23c 1940 35bc
00000060: 3f34 7ebd 043a 413e cd6b 84bd 6ab8 22be
00000070: f2a2 5bbe fcda 97bd 5ad5 7a3e 68e9 23bb
00000080: 8944 2a3e 3eb8 573e 232b 343d d7ec 853e
00000090: 57bb 91bd 224b b13d 86a0 c33c 3c25 9b3d
000000a0: adbb 05bd 9aa3 13bb 2c40 96be ea10 9ebc
000000b0: 6479 bd3b 28c3 763d 4846 4ebd 34a0 e1bb
000000c0: 3e11 7dbd 03e2 2cbe 26ac f0bc b87d 96bd
000000d0: a7d4 ce3d 1660 c1bc 4b92 e5bd c38e 473e
000000e0: 812d 6b3e 7a37 a0bc 6fa0 3bbc 4153 82be
000000f0: b064 79bc 4f73 d13c 3bdd 7bbd d9b2 6cbe
00000100: 5aca 443e 61d2 4ebc 56a4 b9bc 5317 7f3e
00000110: 39d1 303d b5be 20be 7cbc bd3b 17b3 523e
00000120: c566 b33d d242 d23c 86ac 7cbe 5bde 49be
00000130: fa79 f4bc d5ae 3dbd 8d62 1cbd c73f 8d3c
00000140: 7d37 09bc 792a 113e f7a9 a63d 7bc7 883d
00000150: c170 31be 0c01 01be f976 0abe fc92 be3d
00000160: 8349 b13c ee98 c1bc 5880 d4bd 7ee6 afbc
00000170: f3b5 c43d cb4f 8fbe 045c 6b3d d87a 0c3e
00000180: 3044 88bd 3e20 eebd 9be0 513d 75f9 0dbe
00000190: 0f3b 03bc 2227 80bd 0e3a 203e a1aa 093d
000001a0: 782b 843e 8acc cdbb 43c0 953d d6bf 8bbc
000001b0: 014a 003e fa61 6ebd e506 f4bb c0c9 a6bc
000001c0: 07bd a4be 89aa e2bd 424b 353e c472 8e3e
000001d0: 78d3 1ab8 4a65 c93d c231 86bd 2b20 a03e
000001e0: 43f7 8f3e 3257 04be b621 153e 8fbf 8d3e
000001f0: 7714 31be 5858 9f3d 02b3 89bd a880 6d3d
00000200: 8d2c adbd cc58 ef3c 1145 1a3d 94b6 993d
00000210: 78f7 8dbe 65c4 0cbd a2a9 cf3d 9d60 4dbd
00000220: 63b7 533d ab89 c43e 0a06 5b3d 94fa 99bd
00000230: 95f4 83be c731 323e b9c1 5a3b f535 1bbd
00000240: ce6c 163e d1e9 043e dc6d 233e cccb 85bc
00000250: 0e11 873d bcd2 73be e368 a13d 4761 1b3e
00000260: 52dd cdbc 5061 23bd 7627 cebd 7aab 863e
00000270: e876 2b3e 49ab aebe 5ec7 3ebe e97e 51be
00000280: 55a7 643c f09e c53d 0ea4 5abd 86fd f7bb
00000290: 53d4 15be 96e9 54bd 12bf 47bd 2beb 86bd
000002a0: 220e 8abe 3506 2c3e 0d67 8abe 980f 013d
000002b0: 44f1 af3d 12ae 19be 3c31 213d 00e4 09be
000002c0: 5240 cabd d1a9 263d 5087 433e 1b84 933e
000002d0: 4254 aabc faca 9e3d c333 63bd 9c45 bcbd
000002e0: 926f ca3d 957c acbe 4cef 6bbd a6f8 643d
000002f0: a329 963d a13f 15be 4b0f b0bd 4177 2e3c
00000300: b94e 293e 3c09 debe ac7d 473b a7b6 b43c
00000310: e560 903d 8923 5cbe 0a34 91bd af7c 5d3d
00000320: c83e c1bd 019e c53d 0bb6 203e cd7c abbc
00000330: 5788 723d f19f a43d 8ae0 903e d1ee 3cbe
00000340: 61c6 0dbe 50fa 72bd ac24 c83c f237 30be
00000350: a5f2 e13d 09db 1c3d 4dd6 4e3e 4366 bf3d
00000360: 80b7 83be 7269 253e 0ca2 083e 3f6d 52be
00000370: f28f a73d 49e2 2ebe 9093 abbc 1d9e 67be
00000380: 3a6c 3d3e 8930 473e 28dc 1bbe b175 1a3e
00000390: 7120 dc3d 4a90 293d 34a4 31bd cc23 b8be
000003a0: aa0d 9abd 1e9a 053e 8f2f 9dbd 538d 1dbd
000003b0: ddb4 9a3e 161a e53d 57a5 8abe e543 003e
000003c0: 23d2 ed3d 8062 d53b a69e 4d3e 7d57 d73d
000003d0: 52fd 1d3b 51a3 0dbd 8e2f 8e3d 31fd 0b3d
000003e0: 3aa4 4c3e 897a 573e 0fe2 6cbc c033 f4bd
000003f0: bfe6 a5be 7e47 913d c46e 893d 856f b03c
0.37326366 -0.007831976 -0.039581317 0.097643465 0.028531248 -0.078350395 -0.25961384 -0.30298877
0.019785015 -0.0651795 -0.13607518 0.2482164 0.24617629 -0.053260602 0.15856886 -0.13619767
0.01137912 -0.18870796 0.005471657 -0.21481346 0.10045496 0.28942627 0.027669216 -0.011062645
-0.062061545 0.18869787 -0.06465874 -0.15890661 -0.21448877 -0.07414815 0.2449545 -0.0025010947
0.16627707 0.21066377 0.04398645 0.26157257 -0.0711581 0.086569086 0.023880254 0.07575461
-0.032649685 -0.0022527934 -0.29345834 -0.019295175 0.005782293 0.06024471 -0.050359994 -0.006885553
-0.06178402 -0.16883092 -0.029378962 -0.07348198 0.10099154 -0.023605388 -0.11209544 0.19488053
0.22966577 -0.019557703 -0.011451825 -0.25454143 -0.01522176 0.025567679 -0.06149028 -0.231151
0.19217816 -0.0126234 -0.02266137 0.24911241 0.04316828 -0.15697749 0.0057902914 0.2057613
0.08759836 0.025666628 -0.24675187 -0.19713728 -0.02984332 -0.04630931 -0.038179923 0.017242325
-0.008375046 0.14176358 0.08137887 0.06678673 -0.17328168 -0.12598056 -0.13521947 0.09305379
0.021641498 -0.023632493 -0.10376042 -0.021472212 0.096050166 -0.27990565 0.0574608 0.13718736
-0.06653631 -0.116272435 0.05123959 -0.13864692 -0.008009686 -0.06257464 0.15647146 0.03360999
0.25814414 -0.0062804865 0.07312062 -0.017059248 0.1252823 -0.058198906 -0.007447111 -0.020359874
-0.32175466 -0.11067683 0.1770449 0.27821934 -3.6913407e-05 0.098337725 -0.06552459 0.31274542
0.28118333 -0.12923887 0.14563641 0.2768521 -0.17292963 0.07780522 -0.06723596 0.057984024
-0.08455763 0.029217146 0.037663523 0.07505527 -0.27727866 -0.034366984 0.10139777 -0.050140966
0.051688563 0.38386282 0.053472556 -0.07518497 -0.2577254 0.17401801 0.0033379628 -0.037893254
0.14689943 0.12979819 0.15959877 -0.01633253 0.0659505 -0.23810858 0.07881334 0.15173827
-0.025129948 -0.039887726 -0.1006612 0.263027 0.16744578 -0.34115055 -0.1863074 -0.20458569
0.013955911 0.096494555 -0.05337911 -0.007568064 -0.14631777 -0.051980577 -0.048766203 -0.065878235
-0.26963907 0.16799243 -0.27031747 0.031509012 0.0859094 -0.15007809 0.039353594 -0.13465881
-0.098755494 0.040689293 0.19094586 0.28811726 -0.02079213 0.077535585 -0.055469286 -0.091929644
0.098845616 -0.336888 -0.05760126 0.055901192 0.0733216 -0.14575054 -0.08596667 0.01064855
0.16533937 -0.4336642 0.0030439897 0.022059752 0.07049731 -0.2149793 -0.07090004 0.054073986
-0.09435803 0.096492775 0.15694444 -0.020933533 0.059212055 0.08038319 0.2829631 -0.18450476
-0.13845207 -0.059320748 0.024431549 -0.17208841 0.11032609 0.038294826 0.20198937 0.09345677
-0.25725937 0.16153505 0.13343066 -0.20549487 0.08181752 -0.17078508 -0.020944387 -0.22618909
0.18498316 0.19452108 -0.15220702 0.15083958 0.10748375 0.04139737 -0.043369487 -0.3596481
-0.075221375 0.13047072 -0.07675087 -0.038464855 0.30216113 0.11186616 -0.2707927 0.125259
0.11612346 0.0065119863 0.20080051 0.10514734 0.002410729 -0.03457958 0.06942664 0.03417701
0.19984522 0.21042837 -0.014458193 -0.11923933 -0.32402608 0.07093714 0.0671058 0.021537552

onnx::GRU_111 f4 [1, 384, 128]
00000000: f193 3e3d 2050 0b3e a1d8 4abd f2e1 64be
00000010: a73d 463e bb74 973e b511 6dbe e020 bbbd
00000020: 80ea 35be 41f6 a8be cf68 903e 1334 d6bc
00000030: ee40 9ebd d831 a5be c63c d8bd 5861 893e
00000040: 14fc 2b3d 8928 4e3e e244 ecbd 287c d0bd
00000050: 4636 233e 0465 993d 9ef0 bbbd 5228 9abe
00000060: 3af1 0e3e 91e8 c83c 384b 1e3e 9976 d3be
00000070: 51b5 0bbf f2f4 b5bd 392b ddbc 6e2a c5bd
00000080: a446 f33d 6dd7 9dbd a66e c33d 385f 3dbe
00000090: 9032 823e f06d c53d ecac d73e 812e b23e
000000a0: 75a4 32be 1146 2ebc fcbb 90be bac8 3dbe
000000b0: 49f6 3b3d d406 4bbe 8904 453e 571c ca3d
000000c0: 9adb 08be 0402 75bd 8e91 023d 29d4 b7bd
000000d0: a535 f03d 6612 83bd b549 1ebd a329 babe
000000e0: 558a 713d 05ad aebe 663f 91be 51fb acbe
000000f0: 3b53 923e 32b9 2e3d 0fb7 993e 62e9 ecbd
00000100: 1239 05bf 33d2 b4bd 7039 b5bd a643 1bbe
00000110: 83f4 52bd 41f7 003e 4e3f 30be af07 d2bd
00000120: 2aa9 473e bb47 77bd 4672 17bd a9e4 723e
00000130: cd85 9cbe ae54 b03d 3613 c83c d8f9 193f
00000140: 934d e33d b42d 3cbd 1699 b13d 50ea a5bd
00000150: 46aa a23d bcdb 613e 2dc4 3a3e 6e08 abbd
00000160: 7787 8f3e 74bf 50bd 2721 613d b50b 32be
00000170: 3f6f f83d a830 503e bfee 8fbe 0fe7 c43e
00000180: 3938 c0bd 95b0 8fbe b2dd 15be 7fb2 c83e
00000190: 7c36 4c3d 6cba bb3c b530 37bd b562 9dbe
000001a0: dd68 46be 5844 833e 0c06 87bd 46d2 e3bd
000001b0: 8e13 b9be 439c 9f3d 547e d5bd 3c2f 6d3e
000001c0: a3f1 15be 5ed5 c13d 4958 793c d942 bf3e
000001d0: 17bb a9bc 3b74 13bd e1fb d6bd b2f6 953e
000001e0: 11c4 0bbe 49f2 6b3e f73d 85be 737b 0dbe
000001f0: 2b3f 66be b970 9c3c b34a 1abe 1245 1d3e
00000200: b7bd f4be f4cb 29be 0800 943e 51e3 babd
00000210: 06cd 6abd 68bf 00be 733d 15be 2a9d 6e3e
00000220: c6db 8abe 4518 39bd 4f09 903c 7b8e 533c
00000230: 72e1 19be 09aa 28bd 31d2 9ebe 7624 a93c
00000240: fc95 47be 2a66 db3d 92cd 27be 7028 a43e
00000250: 1c5f 203e b955 b83e c623 f83d d75b efbd
00000260: 2c46 e63e 5e2e e3bd dd0b 39be 3757 1bbd
00000270: 2b0f 003c 87f6 0d3e 61a9 87be 8c65 453d
00000280: fd23 0b3d eb47 333e a15f ebbc 3d18 c43d
00000290: 7877 1abe ba80 f4bc b239 aa3e 463a e7bd
000002a0: 9374 f0bd cb37 9e3e 6856 25bd 3a80 46be
000002b0: 21bc 943e 4115 edbd 1d75 78be 8f01 c9be
000002c0: f364 29bc 3a2c a33e 30d1 b53c f307 a4bd
000002d0: 7a2f abbe d755 bdbe 1c89 9fbd 20d9 aebd
000002e0: 09a6 ad3e 3438 52bd c8de b23e 4cc4 893e
000002f0: 3e7e 5d3e d88b 003d 127b 1bbe 4641 1a3d
00000300: fd35 76be 3598 bebd 4f6f 373e 22ba 643e
00000310: 05b2 dfbd 623d 80bc 81bb bc3d e2ab 713e
00000320: 91ae 43be 84ba e6bd 4ff0 32bd ef68 753d
00000330: b99a 3abe 0944 0f3e d094 adbe 0878 fa3b
00000340: 8246 61be e588 073e 55d3 f2bc c73d 843c
00000350: fe4d 773e ecdc 5a3e dbbe a13d 81e4 adbd
00000360: f11f a33e 839b 89be 025f 273e ec4a 56be
00000370: e891 383e 025a 783c f638 fc3e 30f4 a93d
00000380: 7785 51be 1a5d 8ebd ed42 c2bd 9aee 093c
00000390: e319 06be de25 cb3e b900 ee3d ad3e 77be
000003a0: ff20 ecbd 9dc2 a13c f898 4fbb 51e1 85bd
000003b0: ad32 d1bd a8ba 6dbe dd5d b83e 10cd 503d
000003c0: 831f ed3c bbeb 99bd 6aed 4f3e e8a4 323e
000003d0: 05c9 59be 7148 86bd 6509 61be 365f 92be
000003e0: 5a94 36be e0dd 953d 12a0 e6be 45db 5ebe
000003f0: 05d1 e5bd 2c78 263e b830 9abe 2d3d fcbd
0.046527807 0.13604784 -0.049523 -0.22351816 0.19359456 0.29581246 -0.23151286 -0.0913713
-0.17765236 -0.33000377 0.28204963 -0.026147878 -0.07727228 -0.3226459 -0.105584666 0.2683208
0.041988447 0.2013265 -0.11536576 -0.10179931 0.15938672 0.0748997 -0.091767535 -0.30108887
0.13959208 0.024524959 0.15458381 -0.4130142 -0.5457354 -0.0888461 -0.02699815 -0.096272334
0.11878708 -0.07707105 0.09542589 -0.18493354 0.254292 0.096401095 0.42124116 0.34801105
-0.17445548 -0.010636822 -0.2826842 -0.18533602 0.045889173 -0.19826823 0.19240011 0.09868687
-0.13365021 -0.059816375 0.031877093 -0.08976013 0.11728982 -0.063999936 -0.03864451 -0.3635989
0.058969814 -0.34116378 -0.28368682 -0.3378549 0.28579125 0.042657085 0.30022475 -0.11567952
-0.5204021 -0.08829155 -0.08848846 -0.15162525 -0.051502716 0.1259432 -0.17211649 -0.10255372
0.19498125 -0.060371142 -0.036974214 0.2372004 -0.30570832 0.08609901 0.024423223 0.60146856
0.110987805 -0.045942023 0.08671777 -0.08101332 0.07942633 0.22056478 0.18238898 -0.08351217
0.2803304 -0.050963834 0.054963257 -0.17387278 0.121305935 0.20331061 -0.28111836 0.38457534
-0.093857236 -0.2806441 -0.14635351 0.39198682 0.049856648 0.022916041 -0.044724185 -0.3073937
-0.1937594 0.2563808 -0.0659295 -0.11124091 -0.36147732 0.077934764 -0.10424486 0.2316255
-0.14642958 0.09464525 0.015218803 0.37355688 -0.020719094 -0.035999518 -0.10497261 0.29289776
-0.13649012 0.23041643 -0.26023838 -0.13816623 -0.22485034 0.01909672 -0.15067558 0.1535838
-0.4780099 -0.16581708 0.28906274 -0.091253884 -0.05732443 -0.12573016 -0.14574222 0.23302141
-0.271208 -0.04518916 0.017582564 0.012912388 -0.15027407 -0.041177783 -0.31019738 0.020647269
-0.19490808 0.107128456 -0.16387013 0.320621 0.15661281 0.360029 0.12116198 -0.11687439
0.44975412 -0.11092828 -0.18070932 -0.03792497 0.007816116 0.13863574 -0.26496413 0.048192546
0.033969868 0.17507903 -0.028732123 0.095749356 -0.15084636 -0.029846538 0.33247143 -0.11290412
-0.11740985 0.30901942 -0.040365607 -0.19384852 0.2904978 -0.115763195 -0.24263425 -0.39259002
-0.01033901 0.3186968 0.022194475 -0.08009329 -0.3343466 -0.36979553 -0.077898234 -0.08537507
0.33915737 -0.05132313 0.34935594 0.26907575 0.21630189 0.031383365 -0.15183666 0.037659906
-0.24044032 -0.09306375 0.17913555 0.22336629 -0.109226264 -0.01565427 0.09215451 0.23600724
-0.1910956 -0.11266044 -0.043686207 0.059914526 -0.18223085 0.13990797 -0.33902597 0.0076437034
-0.21999553 0.13235815 -0.029641787 0.016142739 0.24150845 0.21373338 0.07897731 -0.08490849
0.31860307 -0.2687646 0.16344836 -0.20927018 0.18024409 0.015158178 0.49262208 0.08298528
-0.20461069 -0.069513515 -0.09485421 0.008418703 -0.13095812 0.39677328 0.116212316 -0.24145003
-0.11529731 0.01974612 -0.003167687 -0.06537116 -0.10214744 -0.23215735 0.36009112 0.050976813
0.02894569 -0.07515665 0.2030541 0.17445719 -0.21268089 -0.06556786 -0.2197624 -0.28588265
-0.17830029 0.0731771 -0.45044 -0.21763332 -0.11221508 0.1625678 -0.30115294 -0.12316356

onnx::GRU_112 f4 [1, 768]
00000000: bc02 46bd c5a1 debd 3696 b2bd acb0 a0be
00000010: 0d1c 003d cb5b 4ebe ba2e 77be f90b 8f3d
00000020: 2146 babe 6033 90be 2b0e 37be bba9 50be
00000030: 2c20 07be b0bc 25be 5663 05bd 7a62 8dbe
00000040: fad7 9abe 7ba9 003e 2f88 253d f0aa b5bd
00000050: 1011 22bd a43e 17be 8834 0bbe 4495 e0be
00000060: 4935 2dbe 64a2 a4bd 47cf 67be 37b1 55be
00000070: 9df1 a2be 2483 d0bd 9742 bfbd 3d09 9abe
00000080: 33c0 c2bd 909f 473e f260 2ebb 9a5b 48bd
00000090: c2a1 9b3d eb86 92be 2f6e 80be 5c91 fbbd
000000a0: c19c 08be a14b 1dbe 4dec 39bd 27b8 84be
000000b0: 3183 38be cbb1 5e3c b937 f7bd 0078 14be
000000c0: 6f57 da3d f0b4 213e 7157 87be dadd e1bd
000000d0: 8c35 3ebe 47a7 61be 99be 61ba fd0c c0bd
000000e0: 3563 aabe 863c f4be aeba 093d 30bc 8fbc
000000f0: c5a4 6ebe 1397 97be add6 64bd 657b 39be
00000100: 0f93 d3bd 7063 35be 8889 d7bc 5978 31be
00000110: eee8 db3c ecec c03c bed6 7fbe 0099 ea3d
00000120: ad34 71bd 129e 983d ec08 4dbe cbb7 a13d
00000130: 8a5c dfbd 52f5 16be 3513 433d b8ff 4abe
00000140: 9ed5 25be 8165 85be ef00 61be 880e 66be
00000150: d79a aabd e6f1 463e d818 a9be b41f 83be
00000160: 28e9 af3c f3b7 52be dee7 d3bd 0226 37be
00000170: 1315 23be 0cf6 3cbe 5acb f6bd c52d 2cbe
00000180: e7cd 54be 981e 3bbe 386d b8be 9163 3abe
00000190: 0762 c3bd 3661 cdbc 792f 27be d254 fabd
000001a0: 09e1 f2bd 4154 00be e92b 6abe 37bc febd
000001b0: b678 173e caf6 94bd 854e 13be 5820 0ebe
000001c0: 35f1 66be 5f39 2dbe 31ef a8be a818 57bd
000001d0: 3261 6bbe a6ba 59be 65d6 84be d00c 26bd
000001e0: 939e 8ebe a88e 6dbe b2f2 57bd 4191 2dbe
000001f0: 068e bb3d c27c 1ebd f738 633c c635 f4bd
00000200: 9cef 64bd 4cdd a03d eb10 153e 5a97 043e
00000210: 0840 04bd e5b0 78bd 0e51 d03d 0148 1a3e
00000220: dca3 f33d baf3 043e 3935 73bc 3420 6c3d
00000230: d872 533d 9318 de3d 74a5 363e ba17 3d3e
00000240: 68b8 f43d c881 063e 56a9 f93d 5c6d f93d
00000250: bec0 9b3d ae9d 9dbc 9a21 3a3e 995f eb3d
00000260: bccf 863d 5343 0b3d ec1e 553e 204b 183e
00000270: 33b3 853c 5f67 8d3d f8eb 223e 2d36 9e3d
00000280: d650 febc d71f 133e 06ae 4e3d fe22 0a3e
00000290: 6953 193d 09a2 64bd baf3 ac3d d772 d33d
000002a0: 4914 3e3e 6435 ff3d daa6 003e d68c a63d
000002b0: 315e 553e 1af0 973d 367f e03d b165 1a3e
000002c0: 1ce8 b73d e646 883d 212b d83d 2151 043e
000002d0: 2df7 1a3d 4cda 063e 2032 6d3e 3f5e 413e
000002e0: 45ba 6a3d 0014 953d e32d 223e eecb 203e
000002f0: c8db 2a3e ed08 e7bc e0b5 283e 50d7 473e
00000300: 57c0 de3b ad97 d13d 1d58 2a3e 2c84 8d3d
00000310: 4c7c f53d ced5 9e3d 2db8 473d 7a68 003e
00000320: 901a 173e 14f7 3b3e bb42 073e 3b53 253e
00000330: 134c 123e b2f3 dd3d 507e ab3d ebc5 9c3d
00000340: 9d17 283d 7bd2 dd3d 258e 4e3e c388 923c
00000350: c2f2 473e 4656 323d 766c fa3d 1b9b 163d
00000360: 4543 373e 0ecc 6c3e ab76 213e 391a a53d
00000370: d716 ef3d e75a f73c 9c9b fdbd 3f00 3e3e
00000380: fb47 213e 10a9 8a3d 5b9f b3bc 3b26 1f3e
00000390: 1e8b 8bbb 9e21 5d3e 1c90 0cbc e4ab fa3b
000003a0: 8e29 623c 92bc 253e 4c28 853d aebc 723d
000003b0: 0491 ab3d d498 903d 3fc0 003e d5f3 d23d
000003c0: ce79 e93d 0361 ca3d c50b 653e e739 a33b
000003d0: e8ab 423c a2ef e93c 424e 023e 95fb de3c
000003e0: a779 013e c36b f23b 7d41 233e c752 e03d
000003f0: d178 243e 3994 d33d dd28 313e 8822 f13d
-0.04834245 -0.10870699 -0.08720057 -0.3138479 0.03127675 -0.20152204 -0.24138919 0.069847055
-0.3638163 -0.28164196 -0.17876498 -0.20377247 -0.13195866 -0.1618526 -0.032565437 -0.27614194
-0.30242902 0.12564652 0.040413078 -0.08870494 -0.039567053 -0.14769989 -0.13594258 -0.4386388
-0.16914858 -0.08038786 -0.22637664 -0.20868383 -0.3182496 -0.10181263 -0.09338873 -0.30085173
-0.09509315 0.19494462 -0.0026608077 -0.048915483 0.07599212 -0.2861856 -0.25084063 -0.122835845
-0.13341047 -0.15360881 -0.04539137 -0.25921747 -0.18018796 0.013592194 -0.12071175 -0.14498901
0.10661208 0.15791678 -0.264339 -0.11028643 -0.18575114 -0.22036467 -0.000861147 -0.09377477
-0.33278814 -0.47702426 0.033625297 -0.01754579 -0.23305042 -0.29607448 -0.055868793 -0.18113478
-0.103307836 -0.17713714 -0.026310697 -0.17331065 0.026844468 0.023550473 -0.24984261 0.11454964
-0.058888126 0.074520245 -0.20022935 0.07896384 -0.10906322 -0.1474202 0.04762574 -0.19824111
-0.1619477 -0.26054004 -0.21973012 -0.2246648 -0.083303146 0.19428214 -0.33026767 -0.25610125
0.021473482 -0.20577984 -0.103469595 -0.17885593 -0.15926008 -0.18453234 -0.12050505 -0.16814335
-0.2078167 -0.1827339 -0.36020827 -0.18202044 -0.095401816 -0.025070768 -0.16326703 -0.122232094
-0.11859328 -0.1253214 -0.22868313 -0.12438243 0.14792141 -0.07273634 -0.14385422 -0.13879526
-0.2255295 -0.16916417 -0.3299499 -0.05251375 -0.22986296 -0.21262607 -0.2594482 -0.040539563
-0.27855358 -0.2319895 -0.052721687 -0.16949941 0.09157948 -0.038693197 0.013868562 -0.11924319
-0.05589257 0.07854709 0.14557235 0.12948361 -0.032287627 -0.060715575 0.1017171 0.1506653
0.11896488 0.129836 -0.014844232 0.0576479 0.051623195 0.10844531 0.17836553 0.18466082
0.11949235 0.13135445 0.121905014 0.12179062 0.07605122 -0.019240227 0.1817688 0.11492843
0.06582591 0.033999752 0.20812577 0.14872408 0.0163208 0.06904482 0.15910327 0.07725177
-0.031044405 0.14367615 0.05045893 0.13489911 0.03743306 -0.05581859 0.08444925 0.10324638
0.18562426 0.12461355 0.12563649 0.08132331 0.20836712 0.074188426 0.109617636 0.15077855
0.08979818 0.06654148 0.10555101 0.12921573 0.03783338 0.13169211 0.23163652 0.18883608
0.057306547 0.07279205 0.15837817 0.15702793 0.16685402 -0.028202498 0.1647563 0.19515729
0.006797831 0.10234008 0.16635175 0.069099754 0.11986598 0.07755624 0.048759628 0.12539855
0.14756227 0.18355972 0.1320905 0.16145031 0.14286833 0.10837497 0.083737016 0.07654937
0.041038144 0.108311616 0.20171411 0.017887479 0.19526199 0.043539308 0.122277185 0.036769014
0.17896755 0.23124716 0.15767924 0.08061642 0.11674278 0.030194713 -0.12383196 0.18554781
0.15750115 0.06770527 -0.021926573 0.15541928 -0.0042585274 0.21594855 -0.00857928 0.0076498855
0.013803853 0.16185215 0.06501827 0.05926197 0.08377269 0.070604 0.12573336 0.103004135
0.114001855 0.09881785 0.22367771 0.0049812677 0.011881806 0.028556649 0.12725165 0.027219573
0.12644063 0.0073981 0.1594295 0.109532885 0.16061713 0.103310056 0.17300744 0.117741644
