docs/model/tricks_gru.onnx (onnx, 360261 bytes, 6 tensors)

embed.weight f4 [78, 64]
00000000: 661a c93f b0b0 d9bf 7822 a33f 1db7 823f
00000010: 575e 0abe fa95 6cbf 60fd 5d3f fef7 d33d
00000020: 1ed9 db3e 7e1a fabd b827 893f 25d0 f33e
00000030: a102 d63f fdb7 b63e 86df 003f cd6c 533f
00000040: 0ce1 9c3e f996 ffbf 2d87 06bf d008 973f
00000050: 7ae4 853f f860 d83e 8735 00bf 255a 5e3d
00000060: 7706 0740 0a73 5cbf 4331 11bf cf8a 3a40
00000070: 6aa7 1a3f 75b2 fd3e 4052 933f e404 e43f
00000080: d5cf 6cbe d952 4f3f 2d7c 933f 8d83 ab3f
00000090: 34cf 04c0 b21b 9abf 7a1a 103f 1ed4 62be
000000a0: e461 c63f 285c 253f 245f 29be 3b7a c1bf
000000b0: cbd5 963e 93dc e2bf 75cc 053f 5df9 6b3f
000000c0: f74e c33d 08ba 84bf 5f5c 65bf e18a 73be
000000d0: 26e5 903f 391c 3e3f e4cd bbbd f4ff 973e
000000e0: 21ca 2dbf 7c41 60be 9a6a ac3e 19a6 373f
000000f0: 8fbd 94be 943b f3bd 23fb 463f 7148 94bf
00000100: 6012 babf b6e5 d93f 8515 a4bf 99f3 9abf
00000110: 2ebd 6e3e fdd9 e0be 8f04 8dbf 284b f63e
00000120: 8079 033f 6c41 afbf f6d1 813f fa25 f63d
00000130: 898d 97bf 5dd0 da3f ad2b c33f beb7 663f
00000140: 4711 fe3e af18 a93c c7d5 653e 18f5 433f
00000150: 13b2 5ebe 25c7 88bf 8f2c ab3e e091 94bf
00000160: 8654 ba3e 71f8 2ebc 16a2 bc3f 0f1c e6be
00000170: fbd1 013f 85e5 b9bf bdc2 8fbe 3ec7 73be
00000180: ff25 623f 8360 9c3e 4cb5 d5bf 7fb4 3cbf
00000190: eb47 9abf fda4 8d3e 029f 943f 0838 893f
000001a0: 51aa 61bf 0cbc 0fbe baa0 803f 334c 873f
000001b0: ac7b 8b3f 51e4 54be 7d84 8e3e e6fa 83bf
000001c0: 50db 1a3f adb3 13bf fa53 0340 cc10 c2bf
000001d0: b168 9bbe bbcf 1c3f ef2f 393f c853 c3be
000001e0: 5a0b abbd 47b0 b7bf e458 76bf 1f05 6c3f
000001f0: 4fe1 d9bd 6556 c7bf 7caf c83e 8129 c9bf
00000200: bb0b 8c3f 0171 4ebf 7cf1 003e cfb2 4cbf
00000210: 453c 0e3d 44ca 27bf 403f df3f 1522 d6bf
00000220: 2e96 b5bf a435 49bf 169a f3bf 6120 09c0
00000230: b951 9a3f 5ade ce3f 09ac ed3d 2d9e c2bf
00000240: 12dc 86be b539 10bf a69b ff3f fcce 05c0
00000250: 96f5 8e3e 5b9c 773e a2b7 a93e 5afb e13f
00000260: 52ea 24bf 799b 6a3f 9d54 8c3e eef4 6b3f
00000270: 0959 adbe 85b5 ff3e f850 8d3f 0295 8b3f
00000280: fcfb 803f ef13 86bf b8ea 09bf e31f 7b3e
00000290: a0c0 213f ebbb a7be 006e d6bf 7950 b03f
000002a0: f7f7 c7bf 3203 14bf 2522 fb3f df10 f73e
000002b0: 26ac 60bf 6efb 73bf 1257 8bbe 5940 773f
000002c0: cd12 f7bc 5f1f 00bf 894f 02bf 46f3 b73e
000002d0: 8e50 2640 a27e fabe b2b1 2dbe a036 c7bf
000002e0: 8c62 a63d 9b90 5bbe f39b 21be 8698 8a3f
000002f0: af93 1cbf 5cb6 723f 9588 98bd d117 0c3e
00000300: f528 2240 9c1b 6e3f a1dd d73e f37c 963f
00000310: 8e30 dbbf 08c0 afbf 53bb 8a3e 9a70 9b3f
00000320: 824c 3fbe e4a9 dd3e d56c bf3f 0d4b a4bf
00000330: 0a9a 91be 5c81 d73e b1f4 9c3e d370 273e
00000340: 8275 853f d4f1 603e f9c1 8ebe 1251 e9be
00000350: eb2e 353f a92d a03f 90aa babf 2d07 c83f
00000360: 3300 773f 63d6 293f a851 ae3f 9b10 76be
00000370: c91c 80bf 4504 2a3e 7f90 ccbf 257f 0a3f
00000380: 8042 9d3f 7be3 673e c442 01bd 9faa 0240
00000390: 125c bb3f 02a4 b2bf e1d7 853f 87af a9bf
000003a0: 9620 88bf b2b7 50bf 8c37 ecbf e911 a33f
000003b0: a0bf 70be 240a 86bf 0e63 4b3f 705b 273f
000003c0: 9025 a8be 83ff febe 60a0 a63e 834c a43f
000003d0: 53ca aa3f 3f76 34bf 0990 a03f 334f febf
000003e0: 43d9 1fbf 3646 b13f bbba 773f 2b37 f93d
000003f0: f2b0 943f ae9d e03f 96c0 7abe e24e 9f3f
1.5711181 -1.7007046 1.2744894 1.0212132 -0.1351255 -0.92416346 0.86714745 0.10350035
0.42939085 -0.12212084 1.0715246 0.4761974 1.6719552 0.35687247 0.5034107 0.8258789
0.30640447 -1.9967948 -0.5255001 1.1799564 1.046035 0.4226148 -0.50081676 0.054285187
2.1097696 -0.86113036 -0.5671579 2.9147222 0.60411704 0.49550214 1.1509476 1.7813993
-0.23126157 0.8098579 1.152227 1.3399521 -2.0751467 -1.2039702 0.562904 -0.22151229
1.5498624 0.64593744 -0.165402 -1.5115427 0.29459986 -1.7723564 0.522651 0.92177373
0.09536546 -1.0369272 -0.8959407 -0.23783447 1.131993 0.74261814 -0.0917013 0.29687464
-0.6788655 -0.2189998 0.3367508 0.7173782 -0.29050872 -0.11876598 0.77726954 -1.1584607
-1.4536858 1.7023227 -1.2819067 -1.210559 0.23314354 -0.43916312 -1.1017016 0.48104215
0.5135727 -1.369184 1.01422 0.12018962 -1.1840068 1.7094837 1.5247704 0.9012412
0.49622557 0.020641653 0.22444831 0.7654586 -0.21747617 -1.0685774 0.33432433 -1.1607018
0.3639261 -0.01067935 1.4736965 -0.44943282 0.5071103 -1.4523169 -0.2807826 -0.23806474
0.8833923 0.30542383 -1.6695952 -0.73712915 -1.2053198 0.2766494 1.1611025 1.0720224
-0.8815051 -0.14036578 1.004905 1.0570129 1.0897117 -0.20790221 0.27835456 -1.0310943
0.60490894 -0.5769604 2.0520005 -1.5161376 -0.3035331 0.6125447 0.72338766 -0.38149858
-0.083517745 -1.435067 -0.96229386 0.92195314 -0.10638677 -1.557324 0.39196384 -1.5715791
1.094108 -0.8064118 0.12592119 -0.7996034 0.034725446 -0.6554301 1.7441177 -1.6729151
-1.4186456 -0.78597474 -1.9031398 -2.1426013 1.205619 1.6161606 0.11605079 -1.5204521
-0.26339775 -0.56338054 1.9969375 -2.0907583 0.27921742 0.24180739 0.33147913 1.7654831
-0.64420044 0.9164348 0.27408305 0.9217061 -0.3385699 0.49943176 1.1040335 1.0904849
1.00769 -1.0474833 -0.5387378 0.24523883 0.6318455 -0.32760558 -1.6752319 1.3774558
-1.5622548 -0.57817376 1.9619795 0.4825506 -0.8776268 -0.95305526 -0.27214867 0.9658256
-0.030160332 -0.5004787 -0.5090261 0.3592779 2.5986667 -0.48924738 -0.16962317 -1.5563545
0.08124265 -0.21441881 -0.15782146 1.0827796 -0.6116285 0.9480951 -0.07447926 0.1368096
2.5337498 0.9301088 0.42161277 1.1756881 -1.7124193 -1.3730478 0.27096042 1.2143738
-0.18681529 0.4329368 1.4955088 -1.2835404 -0.28437835 0.4209088 0.30655435 0.16351633
1.0426486 0.2196725 -0.27882364 -0.45569664 0.70774716 1.2513934 -1.4583302 1.562719
0.9648468 0.66342753 1.361867 -0.24029772 -1.0008785 0.16603191 -1.5981597 0.5410026
1.2285919 0.2264537 -0.031557813 2.041664 1.4637473 -1.3956301 1.0456506 -1.3256692
-1.0634944 -0.81530297 -1.8454452 1.2739841 -0.23510599 -1.0471845 0.7944802 0.653739
-0.32841158 -0.49804315 0.3254423 1.283585 1.3342994 -0.7049293 1.2543956 -1.986792
-0.6244089 1.3849552 0.96769303 0.121687256 1.16165 1.754812 -0.24487528 1.2445948

fc.weight f4 [78, 128]
00000000: 1c04 cdbe 5ec7 993e 073d d1bd 3283 d6bc
00000010: 4dd8 84be e7db 7cbe 44b4 8c3e f85b 9f3d
00000020: 0ce7 483e a1ad 393c 5d17 ca3d 74a7 063e
00000030: ebd4 023d 6ca4 62be 48d8 19be 62b9 803c
00000040: c614 453e 45d0 2f3e 7541 133d b579 4a3e
00000050: 8241 0fbd b3c9 3d3c 0a6b 023d ea18 c43c
00000060: 9f30 7f3c 32dc a2bd 8d0f a03e 0a62 d3bd
00000070: ddd8 213e d525 203e 3c99 96bd 585e fe3d
00000080: fb1b c7bd 9bf8 93be d4c4 dcbd e266 cfbe
00000090: 5b42 40be 5a89 663e c846 3dbe 569d 8a3e
000000a0: 5889 66bd e53e e83d a019 0a3e d369 33be
000000b0: e67b 98bd 6531 bbbd e57e 473d 0d93 89bd
000000c0: 3220 8f3e d972 34bd dd96 a23e 17be 26be
000000d0: 60ec c13d eb78 86be f291 1b3d 1b29 213e
000000e0: 072d d4bd bb9d 833e 9f6f 0e3e 45f0 9fbd
000000f0: 3cab 393d d3ea bbbe 2cee 85bd 3d39 05be
00000100: 7ead 4d3e 4ebc e7bd d6e1 5d3d f807 dcbd
00000110: 9bda 333e ddd3 7d3e 6975 dcbc f823 013e
00000120: b87c d63c 144f 5abe d511 75be 6f26 7fbc
00000130: ed3f f93d 3323 e93e ecf5 773e 80d6 593e
00000140: 903f 88be baf4 9ebd e051 98bc 2d35 883d
00000150: 5649 0cbe 30eb 93be 1d32 60bd 1329 013e
00000160: cd40 34bc b6ba febc f0b5 c63e 2528 78bb
00000170: 0f1f 40bc 0ef5 1c3d 26b1 ca3d 9a16 463d
00000180: d3a6 3f3d 1f05 56be 96aa 9fbc be46 b33e
00000190: bfdc 503d 7a83 82be 721a 82be bea6 fe3d
000001a0: 8d4f 6ebd a59e 223d f94f 843d 284e efbc
000001b0: 9613 4f3e 9b78 723c 0376 1abe 24bd 6fbd
000001c0: 776a 693e 8f96 633e 29eb 72be 7901 343e
000001d0: 9a20 28bd 35a2 fd3d e597 003d 328d 263e
000001e0: b6d8 403e 0d77 8fbd af03 92be dae4 e73c
000001f0: c149 fbbd 2def 053e 8ebf 3b3e d881 d1bd
00000200: 4329 433e 77e9 25be 04b4 79bd 7ee5 b1bd
00000210: 5941 e13d f032 663d 05d1 4dbe a9d7 47be
00000220: f32b 273e 544b 8a3e 85a8 b23d c8c6 9cbd
00000230: b658 b43e bc78 45bd aa0f a53d 3fb7 db3d
00000240: b00e df3d 1870 87bc 006c 753e 87fb 36be
00000250: 8097 e2bd 77b7 073d ddae 4bbe 7999 6abe
00000260: 089d bb3d 5396 afbe 5f0e aabc 8232 3ebe
00000270: e0a4 70bd a56b 4cbd 1b11 dfbd e7fe 0f3e
00000280: 62ef 94be db02 fb3e 3e97 8cbe 0a5b 85bc
00000290: e013 c9bb 1b8c 923d d0a6 823c db64 88be
000002a0: 3671 d53d 7c89 dbbc 6ca0 803d 91be 3bbe
000002b0: bc0c cf3e 1788 bd3e 39ce cabd e52b 493e
000002c0: e85d 10be 6a35 7cbe 12f8 2d3e 8e65 9f3e
000002d0: 8fed 1f3e faba e83d 5d81 fabd 16f7 bcbd
000002e0: 7014 ba3b c1cf 983d aacf 0a3e a242 42bd
000002f0: a266 1bbe 99d4 83be 07a3 b13e 2faa 20be
00000300: b588 23be 422c 4c3d 78ea 353e 6164 4c3d
00000310: bdfc 0abd 83a3 1e3e 064a 94be ebe3 9ebd
00000320: cd25 adbd 3f06 5abc b0e9 f23d bc4e ac3d
00000330: 6838 b83e 1c12 9bbe a748 23be 4316 86be
00000340: 8865 0e3e 6e26 c4bc fd33 5b3d 83b7 b8bd
00000350: 3405 ef3e a1ec 38be 0656 d1bd 50de 883e
00000360: e12d 50bd ddf7 a83d a1f9 16be 7dcc 143d
00000370: ec53 653e b2ca 81bb f743 ad3e ef93 74be
00000380: 0c67 cdbc 102c 0bbe dced 43be 5cec ee3d
00000390: d637 383e af2a bc3d 8f94 703e c5d2 25bc
000003a0: 822a 0fbe ce6c 0bbe 5f08 f9bd d3e4 753e
000003b0: 37ff 8fbc f9ca abbc 116e abbd 444b ccbd
000003c0: 07b1 833e d349 82be 3009 a43e d3c5 a2bd
000003d0: 3722 07be 546e 5c3d dcf5 8bbe 8e4a 683e
000003e0: 7521 3dbe fa84 15be b5a7 2b3e 910e d13c
000003f0: f831 9a3c b28a 87be 2728 26be 9597 1bbe
-0.40042198 0.30034918 -0.10216718 -0.026185606 -0.25946274 -0.24693261 0.27481282 0.077812135
0.19619387 0.0113329 0.098677374 0.13149816 0.031941336 -0.22133034 -0.15023911 0.015713397
0.19246206 0.17169292 0.035951097 0.1977299 -0.034974582 0.011583733 0.03184036 0.023937661
0.015575557 -0.07952155 0.31261864 -0.10321434 0.15805383 0.15639432 -0.07353446 0.124203384
-0.09722134 -0.28900608 -0.107797295 -0.4050818 -0.18775313 0.22513333 -0.18484032 0.27073163
-0.056283325 0.11340121 0.13486338 -0.17520837 -0.07445507 -0.09140281 0.048705 -0.06717501
0.2795425 -0.04405484 0.31755725 -0.16283451 0.09468913 -0.26264128 0.03798098 0.15738337
-0.10360151 0.25706276 0.13909768 -0.078095 0.045329317 -0.36702594 -0.06539568 -0.13010116
0.20085713 -0.11315213 0.054170452 -0.107437074 0.1756386 0.2478785 -0.026911454 0.12611377
0.026182517 -0.21319228 -0.23932584 -0.015573128 0.12170396 0.45534667 0.24214906 0.21273232
-0.26610994 -0.07761522 -0.018593729 0.066507675 -0.1369985 -0.2889037 -0.05473529 0.12613325
-0.011001778 -0.03109489 0.38810682 -0.0037865725 -0.011726155 0.03831964 0.0989707 0.0483614
0.046789955 -0.20900391 -0.019490521 0.3501491 0.05099177 -0.25490934 -0.254108 0.12434147
-0.058181334 0.039702076 0.06460566 -0.029212072 0.20222315 0.014799262 -0.1508408 -0.058529988
0.2279452 0.22225402 -0.23722519 0.17578687 -0.041046716 0.12384454 0.031394858 0.16264799
0.18832669 -0.07005129 -0.28518435 0.028307367 -0.12269927 0.1307952 0.18334791 -0.10229844
0.19058709 -0.16202341 -0.060962692 -0.0868635 0.10998792 0.05620092 -0.20099266 -0.19515862
0.16325359 0.27010596 0.08723549 -0.07655102 0.3522393 -0.048210844 0.08059628 0.10728311
0.10891473 -0.016532943 0.2396698 -0.17869388 -0.110640526 0.03313395 -0.19890924 -0.22910108
0.09160811 -0.34294376 -0.020758806 -0.18573955 -0.058750987 -0.049907345 -0.108919345 0.14062081
-0.29088885 0.49025616 -0.2745914 -0.016278762 -0.0061364025 0.07155629 0.015948683 -0.26639447
0.10421984 -0.026798956 0.06280598 -0.18334414 0.40439403 0.3701789 -0.09902615 0.1964565
-0.14098322 -0.24629751 0.16989163 0.31132168 0.15617965 0.11363788 -0.12231705 -0.092268154
0.005678706 0.07461501 0.1355578 -0.047426827 -0.1517587 -0.25748137 0.34694692 -0.1568992
-0.15970118 0.049846895 0.17765224 0.049900416 -0.033932436 0.15492062 -0.28962725 -0.07758316
-0.084544756 -0.013307153 0.118609786 0.08413455 0.35980535 -0.30287254 -0.15945683 -0.2618886
0.13905919 -0.023944106 0.053516377 -0.09019377 0.46683657 -0.18059017 -0.10221486 0.2673211
-0.050825004 0.08250401 -0.14743663 0.036327828 0.22395295 -0.0039609307 0.33840916 -0.23884557
-0.02507355 -0.13591027 -0.19133705 0.11666176 0.1799005 0.09187829 0.2349417 -0.010121052
-0.13981059 -0.13615724 -0.121598 0.24013071 -0.01757775 -0.020970808 -0.08370603 -0.09975293
0.25721 -0.25446948 0.3203826 -0.07947888 -0.13196646 0.053816155 -0.27336013 0.2268469
-0.18469794 -0.14601508 0.16763194 0.025519641 0.018822655 -0.26473004 -0.16226254 -0.15194543

fc.bias f4 [78]
00000000: 23ce ff3c a894 3839 2411 5e3d fa47 76bd
00000010: aa5b bb3c 04f7 dd3d e0a7 b33d ccba afbd
00000020: 9328 49be ce16 94bd 1ac3 e3bd 7dfd e53b
00000030: 6250 89bd 0c00 22be a685 9abd 848c 07be
00000040: 77cf 1bbe 651c abbc b2c3 0cbe e542 89bd
00000050: eb99 17be 8677 24be b2a2 20be 2649 3f3c
00000060: 96a5 d3bd be64 f6bc ba89 2bbe 59bb 30bd
00000070: b4ef 66bb 06c4 c0bd 1beb bcbd 232e 6cbe
00000080: 012a bebd bfdc fdbd 5888 bcbd b04a da3c
00000090: aa38 22bc 5d3e e3bd b079 c6bd d297 38be
000000a0: 1ffd 08bd 592e bfbd 0a74 e2bd b540 253c
000000b0: 1603 633d 00d9 36bd 03e9 1ebe f0df 203e
000000c0: 0278 a9bd 66a1 8fbc d84b 36be b498 11be
000000d0: cdcc c0bc 01cd a1bc adc4 eebd 9864 0fbc
000000e0: b88a 70bd 7b86 cf3d 640c 03bc bfb9 31bd
000000f0: eef9 16be 3804 613d c6a3 04bd 757b 81bc
00000100: cc27 3c3c fc4d bd3a 1ad5 efbc fa76 d2bd
00000110: d185 843d bb47 61bd f2f9 ff3d c34b 043e
00000120: f5c2 d5b9 2fb8 d33d e0ee f3bc ac73 b7bd
00000130: a471 5bbd 94b3 f83d
0.031226223 0.00017602986 0.054215565 -0.060127236 0.022870857 0.1083813 0.08772254 -0.085805506
-0.19644384 -0.07230912 -0.11121197 0.0070187435 -0.06704785 -0.1582033 -0.07545023 -0.13237196
-0.1521586 -0.020887563 -0.13746527 -0.06702212 -0.14804809 -0.1606122 -0.15687063 0.011675155
-0.103343174 -0.030077334 -0.16751757 -0.04314742 -0.003523809 -0.094123885 -0.0922453 -0.23064475
-0.09285355 -0.123956196 -0.09205693 0.026646942 -0.009901205 -0.11095879 -0.09691179 -0.18026665
-0.03344452 -0.09335012 -0.11057289 0.010086228 0.055422865 -0.04464054 -0.15518574 0.15710425
-0.08274843 -0.017533015 -0.1780237 -0.14218408 -0.023535157 -0.019751074 -0.11658607 -0.008752011
-0.058726043 0.10133072 -0.00799856 -0.043390032 -0.14743778 0.054935664 -0.03238275 -0.01580594
0.011484098 0.0014442797 -0.02927642 -0.10276599 0.06470836 -0.055000048 0.12498845 0.12919526
-0.0004077178 0.103378646 -0.02977699 -0.089576095 -0.053575173 0.12143627

onnx::GRU_110 f4 [1, 384, 64]
00000000: 7db8 cdbd 644b 62bd 755c 2fbd 3d3e 603e
00000010: 204e 8b3b 9bd3 313d d91d 183e bacd 29be
00000020: e6c8 41be 65cd 333e e17b 29be 81da 98bd
00000030: 841a 15be 8e08 8dbd 0f9d 8ebe 1a2c 253e
00000040: 8111 ba3c 7ec9 da3d 34eb ef3d c988 15be
00000050: 8a6e 03bd 5a06 9d3d 232a 66bd 361d ff3a
00000060: b652 fa3d 7c73 ae3d d4b8 e5bb f9d3 723d
00000070: 063a 8c3e 34fb 8cbd 87b2 95bc aea9 81be
00000080: f0f4 dd3c b28e a3be b6a6 22be 467d 56be
00000090: 4c6f fb3d 898d de3d af52 e63d 48a0 05be
000000a0: 0b96 a43b 0e97 36be 4eb5 cbbb 9236 5cbe
000000b0: 67ca e7bd ef87 68bd 6c4c e5bc e32e d63c
000000c0: fb57 323d 6949 213e d954 023e 39f2 a83d
000000d0: 1cc5 e03d 0284 61bd 0250 b6be c953 dc3d
000000e0: 138a 493e 91a1 4cbe 1f54 65bc 57af 6f3e
000000f0: bb04 543e c78e 843d 58c0 0e3d f746 a9bd
00000100: dc68 6a3e 4503 52bd cb1c 3cbd 9e59 9cbd
00000110: f1e0 b2bd 72a3 0cbe 6987 ba3d 51c9 fbbd
00000120: bfdc cdbd d115 013d e586 d8bd 8753 1abd
00000130: 14bb 90bc 0820 2fbe 0183 29bc 2116 d0bd
00000140: 0027 14be e1d3 87bd 0968 95bd af87 92be
00000150: db6c d3bc 460d 0b3e 4ea0 803c 8ebf 403e
00000160: 37dd d13d 8ef3 e13c 25e3 b83d 1532 a03c
00000170: 46d9 f1bc c474 8bbd 496b 8f3d f51a 9dbd
00000180: d9d1 3bbd 417b f1bc 0646 1a3d 038e 263e
00000190: 01b3 38bc 525b a4bc d070 143d f9c0 f3bd
000001a0: 0d9d 8abd 07dc f1bd a269 fd3d 90ac 54bc
000001b0: 0d89 a6bc 6e49 ee3d 2cb0 00be 8ad2 a9bd
000001c0: 5db0 2f3c 5e6b 583d 2bcb b8be 9ff3 82bd
000001d0: 3061 68bd 2242 89bd 724f d53d e0fe febc
000001e0: 7e98 6abe 1c53 d33d b30f 48be bd71 c23d
000001f0: e46b 00be f331 863e 502f 3dbd ef52 d9bd
00000200: a7be b7bc 5bda a9bc 1c65 923d ba0d debc
00000210: ece8 073e ab92 553e dfea 3cbd 9d27 4b3c
00000220: f0d7 e8bd 734a babd 399b 0a3e 74fe ea3d
00000230: c718 29bb 8e68 4bbb c31a 333d 2ee8 b13d
00000240: e54e bf3d 2e2f 9f3d 8beb ddbd aa5b 25be
00000250: bef9 cc3c fe11 a03c 72ed 0dbe 1bc0 a6bd
00000260: e015 173e 9907 23bd 2f4f 4bbc 1907 07be
00000270: a590 823d 95c3 cc3d db26 963e 3491 55be
00000280: 41ba 77be 5e5b ce3d 0719 9d3c 6413 13be
00000290: 54a8 5d3e 3bf5 973d 80aa 9f3e 9013 15be
000002a0: d164 7dbe 1577 1bbe 878a 713d e210 ac3e
000002b0: 17f3 d33d ced8 a93d 97f5 4abe 0cf3 8e3d
000002c0: 7545 453e 8302 763d 8fae 77bd c513 2ebe
000002d0: 95c6 35be 4b70 023e f75e 033e 31d9 413e
000002e0: 05a2 28bd 90a0 e8bc 4035 74be 4104 9e3d
000002f0: 5402 b0bd 9585 bcbd 83a5 1fbe 4091 3ebe
00000300: 7aaf c3bb a4ba 0a3e 0e2c eb3d f963 8fbc
00000310: 22c9 2ebe 1cc1 94bc 8dc0 fcbb 9468 1bbd
00000320: 6cdd 913b cc61 353e a0e9 76bc 9555 773d
00000330: 65f4 f7ba 2692 913d fc8b 7c3d 8dd2 a53d
00000340: 97d3 c1bd 9d2a 063e ce7b 9dbd 775b fbbd
00000350: 93d8 78bd 0ad9 113e 250a 8f3e a99c e0bd
00000360: 6a3d 423e ef00 f8bd 78a7 a33e 059c 1d3b
00000370: e9d2 bdbd 4295 b93e e181 59bd 1a86 4abe
00000380: 462b 59bc b0e6 8fbe 518a 8ebd 80c6 05be
00000390: 0b40 ff3c fa22 823d 4756 4a3e d11b b4bd
000003a0: 630f 61be 506c 0cbc fe24 c73d 9a12 3fbd
000003b0: 0d7f 453e 1991 443d 93b0 7dbe 2159 2ebd
000003c0: 965c 99bd 6f43 913e 7835 283d 93d4 20be
000003d0: 99d8 133e e360 1a3e 56d1 c93d f218 93bc
000003e0: 7b12 bbbc 458d febd 71eb c23c 4488 dfbd
000003f0: 4a63 52be 3cc7 8c3e 1448 b43d ebc0 09be
-0.10044954 -0.05524768 -0.042812783 0.21898742 0.0042512566 0.043414693 0.14855136 -0.16582385
-0.18924293 0.1755882 -0.16551162 -0.07463551 -0.14560896 -0.06886397 -0.278542 0.16130105
0.022713425 0.10682963 0.11714783 -0.1460296 -0.03208784 0.07667227 -0.05619253 0.0019463662
0.12222807 0.08518121 -0.0070105586 0.059284184 0.27388018 -0.06883851 -0.018273605 -0.25324768
0.027094334 -0.31944805 -0.15883908 -0.20946226 0.122770876 0.108668394 0.112462394 -0.13049424
0.0050227693 -0.1783106 -0.0062166816 -0.21505192 -0.11317902 -0.05677026 -0.027990542 0.026145404
0.043540936 0.1575066 0.1272768 0.08249325 0.10975096 -0.055057533 -0.35607916 0.10758168
0.19681577 -0.19983508 -0.013997107 0.2340673 0.2070493 0.06472545 0.034851402 -0.082654886
0.22891563 -0.05127265 -0.045925897 -0.076342806 -0.087343104 -0.13734224 0.09107859 -0.122942574
-0.100518696 0.031514946 -0.10572604 -0.037677314 -0.01766733 -0.17102063 -0.010346175 -0.10160471
-0.14468002 -0.066322096 -0.07295234 -0.28619143 -0.025808742 0.13579282 0.01570144 0.18823072
0.102472715 0.027581956 0.090276994 0.019555131 -0.02952255 -0.06809381 0.07002885 -0.07671157
-0.045854423 -0.029477717 0.037664436 0.1626511 -0.011273147 -0.020063076 0.0362404 -0.11902041
-0.06768236 -0.11809545 0.123736635 -0.012980595 -0.020329023 0.11635099 -0.12567204 -0.0829211
0.010723201 0.05283677 -0.36092505 -0.06394123 -0.05673331 -0.06702067 0.104155436 -0.031127393
-0.22909734 0.10318586 -0.19537239 0.0949435 -0.12541157 0.26209983 -0.0461877 -0.106115215
-0.022429777 -0.020734003 0.07148191 -0.027106155 0.13272446 0.2085673 -0.046122428 0.012399581
-0.11369312 -0.09096231 0.13535775 0.11474314 -0.0025802122 -0.0031037661 0.043726694 0.08686863
0.0934122 0.07772671 -0.10835942 -0.16148248 0.02502143 0.01953983 -0.1386011 -0.0814211
0.14754438 -0.039802168 -0.012409016 -0.13186301 0.06375245 0.09998242 0.2932652 -0.20856172
-0.24192144 0.10076021 0.019176973 -0.14362866 0.21646243 0.07419821 0.3118477 -0.14558244
-0.2474549 -0.15182145 0.05897 0.3360663 0.103491 0.08293305 -0.19820248 0.06979951
0.19264777 0.06006099 -0.060469206 -0.16999729 -0.17751534 0.12738149 0.12829195 0.18930508
-0.04117014 -0.028396875 -0.23848438 0.07715655 -0.08594194 -0.09205166 -0.15590481 -0.18610096
-0.005971846 0.1354776 0.11483012 -0.017503725 -0.17068914 -0.018158488 -0.0077133835 -0.03794153
0.0044514444 0.17713088 -0.015070349 0.06038435 -0.001891744 0.07107954 0.061656937 0.080968
-0.09464186 0.13102193 -0.076896295 -0.12273305 -0.060753416 0.1424295 0.27937427 -0.109673806
0.1896874 -0.12109553 0.31963706 0.0024049294 -0.092687435 0.36246687 -0.053102378 -0.19777718
-0.013254946 -0.28105688 -0.069599755 -0.13064003 0.031158468 0.063543275 0.19759475 -0.08794368
-0.21978526 -0.008570746 0.097238526 -0.0466486 0.19286747 0.04798994 -0.24774389 -0.04256547
-0.074883625 0.2837176 0.041066617 -0.1570609 0.14438094 0.15076022 0.09854381 -0.01795623
-0.02283596 -0.12429289 0.023793908 -0.109146625 -0.20545688 0.27495754 0.0880281 -0.13452499

onnx::GRU_111 f4 [1, 384, 128]
00000000: 9944 013e 3f2e 253d 85d3 7b3d d52b 0c3e
00000010: dbab 9a3d 3544 71be 407f 8fbc e890 61be
00000020: 4a64 393e c2a7 a53d 8e8f cdbe ea77 193e
00000030: c682 f43d 405e 463e 78b6 4f3e 15ef 003e
00000040: 78c8 0abe 19ed c73d f77d 8dbe 84e9 c4bd
00000050: db5d 903d 3fec 193d 94a1 7ebc 06de f0bd
00000060: f9c6 c83d 44d1 5abe 6b4e c9bd 6679 46be
00000070: 41a5 423d b2d1 9f3e 259c 2c3e b00d 1d3d
00000080: 8b8c 59bd feb5 773e f369 45bd de9c 283e
00000090: b7b4 6ebd 7aa9 60be c9e9 40bd a4a4 223d
000000a0: 9d34 073e 5381 11be 806f 36be 0e94 863e
000000b0: a73c 963e c0e0 03be 7d61 f43d 6c9c 0cbd
000000c0: 0a28 5ebd dfaf 44be c973 93be ca6b 3d3e
000000d0: afd0 21be 9ad2 963e 1e80 a6be 1f39 3b3c
000000e0: 1ee3 423c 75dc 85be de54 51be 39ff 8c3d
000000f0: 39f9 a7bc 88de 8cbd 7f0d 85bd 88c0 c73d
00000100: 0752 b43d c33c 6e3e 61b8 14be 1c27 9abd
00000110: 7c88 4d3c 0900 15be 9f5f 90be 0beb be3d
00000120: fa10 ae3d 9a2d e8bd ffd3 713e 77cb b9bd
00000130: 256d a4bd cb77 333e 970a cc3d 6252 483d
00000140: bac3 193e c119 6d3e 15bb abbd b8e6 533e
00000150: 8d54 04be e16b 803e fae2 4abc 8a5b 8ebd
00000160: 3ff5 873d 998c 4fbe cde9 acbd 2689 7c3e
00000170: 22f1 36bd 1339 68be 8225 cc3b 5f17 2cbe
00000180: fede 99be 4432 68bd 0496 ca3d 6841 14bf
00000190: ceb1 f8bd 767d e1bb 38ad 043e 1ebc 0c3e
000001a0: 7948 833e 36e2 94bd 1dde 0abf 8e06 973c
000001b0: 3b99 70be 2e67 a4bd 381d 23bd ccde cabd
000001c0: f54c bdbd d1ec ea3c de29 3d3e df65 903e
000001d0: 75d4 103d f652 253d e4d1 a9bc 9857 453e
000001e0: 44c6 a3ba e48b 883e aacd 98be ccf1 17be
000001f0: 738f 28be de59 7d3e 17c6 eabd d4c9 7a3c
00000200: 32c1 4fbe 8a7e e83b 3303 81be f721 f2be
00000210: fad3 333c ffd3 26be e4cb 09be 6cf9 4c3c
00000220: 2d12 8cbe 3adc 783d 0c0d 21be 1337 2abe
00000230: e56f aa3e a5fc 51bd 7c4a 8dbd 6e22 87bd
00000240: d0fa 543d eb8a 82be 18f7 55be e430 35be
00000250: fd7d 5b3e 3632 67be 1a7a 94be cea7 8bbe
00000260: 930c 6f3e c694 ad3e e7f7 873e 5de2 67bd
00000270: 8fc6 b63d 8523 b03d 5985 8c3e a9cd 23be
00000280: 7af8 5ebe 63b6 233d ba37 fd3c 399e 7cbd
00000290: 21a4 bbbd 7423 bebe d305 16bc 3f6a 92be
000002a0: 2eff ac3e 5f7c 96be 858c 28be 2c72 19be
000002b0: 0120 9a3c ae56 5bbe b46b 93be f6f3 a83e
000002c0: 6823 673d 1ff9 6b3d ac32 c0bc 2fae 333d
000002d0: a6dd 093f 4449 a9bd 8986 24bd e078 a83e
000002e0: 0f36 b63d 5786 063e c478 b4bd b911 9fbc
000002f0: b2ac 483e 5d09 8fbe 42cf 54be 50d9 943e
00000300: 18fc 74bd 469e 963e 1083 d23e 1371 e23d
00000310: 8242 a13e f642 e7bd 8d35 5cbb 2730 6b3e
00000320: b7b6 59be 4429 1c3d d0ad 46be dff8 3b3e
00000330: 0891 ee3d 65bb 113e b3f3 a83e c712 12be
00000340: aa00 e7bd 652f e43c 262a 923e 8d3e 733e
00000350: 06e3 df3e 9a33 66be f37d a23e dacb 6cbd
00000360: 870f 963e 335a ab3c 0f13 383e 9ef1 2dbe
00000370: 5d17 82be 5241 983e 0763 443d 7638 2b3e
00000380: dc7a bb3d 02c0 04be fa2f a93d 8487 813d
00000390: 3754 5e3e 545e babe d47b 083e c119 01bd
000003a0: 6c5e 9d3d 5e69 38be 088d c9bd 6d05 253e
000003b0: 8e90 8abd d0be a6be 0f16 9b3e 1ba0 033f
000003c0: 119e 2abd 4b3c d4be 1ab7 e53d 533e d7bc
000003d0: f0a5 2fbe 69ce 62be 2adb e6bd 35a2 26be
000003e0: e26b 31be 2272 953e 3c81 e63d f4aa 08bd
000003f0: 74db cb3e 76a4 5bbe 031d 7fbe 9908 353e
0.12623824 0.040327307 0.061481018 0.13688596 0.0755231 -0.23561175 -0.017516732 -0.22027934
0.18104663 0.08088638 -0.40148586 0.1498715 0.119390056 0.19371891 0.2028445 0.12591203
-0.13553035 0.0976202 -0.27635166 -0.09614852 0.070491515 0.037578817 -0.015541453 -0.117610976
0.09803576 -0.21368891 -0.0982941 -0.19382247 0.04752088 0.31214672 0.1685644 0.03834313
-0.053112548 0.24190518 -0.048196744 0.1646609 -0.05827781 -0.2193965 -0.047097955 0.039707795
0.13203664 -0.1420949 -0.17815971 0.26284832 0.2934315 -0.12878704 0.11932657 -0.034328863
-0.054237403 -0.19207714 -0.28799275 0.1849815 -0.15802263 0.2945755 -0.3251962 0.011427193
0.011894969 -0.26144758 -0.2044253 0.06884617 -0.02050458 -0.06878382 -0.06496715 0.09753519
0.08804708 0.23265366 -0.1452346 -0.07526991 0.012544747 -0.14550795 -0.28197953 0.09322175
0.08499332 -0.11336823 0.23616026 -0.09072011 -0.0802863 0.17526166 0.09962957 0.04890669
0.1501607 0.23154356 -0.083852924 0.20693481 -0.12922879 0.25082305 -0.012383217 -0.069510534
0.06638574 -0.20268477 -0.084430315 0.24661693 -0.044663556 -0.22678022 0.006230057 -0.1680579
-0.30052942 -0.056688562 0.098918945 -0.579123 -0.121432886 -0.006881411 0.12956703 0.13743636
0.2564123 -0.07269709 -0.5424517 0.018435743 -0.23495953 -0.080274925 -0.039822787 -0.099057764
-0.09243194 0.028677376 0.18473002 0.2820272 0.035358865 0.04036232 -0.020729966 0.19271696
-0.0012495001 0.26669228 -0.2984441 -0.14838332 -0.16460972 0.24741313 -0.11463564 0.015306909
-0.20288542 0.0070951628 -0.25197753 -0.47291538 0.010975832 -0.16291808 -0.13456684 0.012510639
-0.27357617 0.0607569 -0.15727633 -0.16622572 0.33288494 -0.05126633 -0.068989724 -0.06598364
0.051997006 -0.2549661 -0.2089504 -0.17694432 0.2143478 -0.22577748 -0.28999406 -0.27276462
0.2334464 0.33902568 0.26556322 -0.05661236 0.08924591 0.08600525 0.27445486 -0.15996422
-0.21774474 0.03996886 0.030910362 -0.06167433 -0.091621645 -0.37136424 -0.009156662 -0.28596684
0.33788437 -0.29391763 -0.16459854 -0.1498496 0.018814089 -0.21419784 -0.28793108 0.32998627
0.05643025 0.057610627 -0.023461662 0.043867286 0.53853834 -0.082659274 -0.040167365 0.3290472
0.088970296 0.13137184 -0.08812097 -0.01941763 0.19597128 -0.2793683 -0.20782188 0.29072046
-0.059810728 0.29417628 0.41115618 0.110567234 0.31496054 -0.11292069 -0.0033601255 0.22967587
-0.21261106 0.03812529 -0.19402242 0.18356656 0.11648756 0.14231642 0.32998428 -0.14264975
-0.112794235 0.02785463 0.28547782 0.2375433 0.43727893 -0.22480622 0.31736717 -0.057811595
0.2930872 0.020917034 0.1797602 -0.16986701 -0.2540845 0.29737335 0.047946002 0.16720757
0.09154293 -0.1296387 0.08261104 0.06324676 0.21711813 -0.36400092 0.13328487 -0.0315187
0.07684025 -0.18008944 -0.09841353 0.16115351 -0.06765853 -0.32567453 0.30290267 0.51416177
-0.04165465 -0.4145225 0.112165645 -0.026274836 -0.17153144 -0.22149052 -0.11272271 -0.16272815
-0.1732631 0.2918864 0.11255118 -0.03336616 0.39815867 -0.21449456 -0.24913411 0.17679061

onnx::GRU_112 f4 [1, 768]
00000000: 02eb df3c be24 babe cb8f d2bd 5c4e c2bd
00000010: 5a6c 47be 4034 dabc afdd ccbe 2e36 c6bd
00000020: c603 b8be cc92 4cbe c675 01be 9cf3 fdbd
00000030: d161 c5bd e6a3 86bd 481e 2bbd a465 32be
00000040: e85a 25be b185 5fbe 6d33 3abe c838 efbd
00000050: b58a 0b3e a3ed 0cbe 19da 11be 25e8 333e
00000060: 0f87 b0be 09cd 8fbc 331e 4bbe c502 143d
00000070: c2f2 98be 7241 49bd b8a6 d0ba 8142 e63c
00000080: 878f 54be 4b63 a4be c92b 51be ca94 7ebe
00000090: 5576 dcbc 0d5b 52be dcce 35be caad 82be
000000a0: ea9c 9cbd bb87 b4be 7b5c 8fbe 7a6d 9ebe
000000b0: 99d2 b8bd bd81 a6bc 8c65 c8bd 3e10 2d3d
000000c0: e101 8abe 109c 15be 6ec0 03be 97b2 cbbe
000000d0: 9e17 4cbe 2377 3ebe 9d80 d3bd 2030 94be
000000e0: 45b3 febd ed5b 4cbd cdf3 adbd 6187 f63d
000000f0: 57d1 2fbe b2ab 23be 42f0 35be eae3 58be
00000100: 3051 6ebe c7c1 74be fc6b f03d 86a7 263e
00000110: 35f8 a1be 6533 10be dcb4 b7be 6c48 30bc
00000120: 8f2c a3bc 0f08 69bd 7ebd 01be 86f8 7bbe
00000130: 2205 8dbe 22b8 2ebe 5cec f4bd e70e 52bd
00000140: af8f 32be f60e 21be 6353 a0be 731c dbbd
00000150: dbff 2dbe 6f6d 26be 6076 babc a33c a4bd
00000160: fa8a 25bd 1ff5 33be 987c 17be 9a79 efbd
00000170: 259f fabd 64e3 00be 7733 4dbe 4e52 443c
00000180: 7afd 52bd a5ea edbc 1621 48be 2b10 663c
00000190: 40e7 e4bd c5b3 1cbe cbb4 d4bd 499b 4dbe
000001a0: baa3 63be caeb 2cbe c959 8bbe 5020 863e
000001b0: 568e 57be 31cb a6bd b3fe 08be b03c 843d
000001c0: e072 b5bd 8dee 6fbd 2050 32be 57cb 86be
000001d0: 27bd 84be 1b4f 91be 073f dabb 268e 18be
000001e0: 715a 5abe 8c69 68be 23bd d2be 70a3 c2be
000001f0: 8055 40be 784a b1be 714b 53be 7394 7cbe
00000200: 6bfb d53d fe22 c43d 114c e73d cfe3 c33d
00000210: 363f 2d3e 1daf 503d 568f 7e3e 9b53 48bd
00000220: 19c6 203e 15f2 46bd 14f6 563d e445 373e
00000230: 04ec 863d bef2 b13d ecfe f93d d5ea 183e
00000240: cbda 033e 2158 193e da75 133e 91db 7bbb
00000250: d140 283e f651 2e3e f56f 95bc 027d b33d
00000260: d921 ce3d 23f8 843d 9b1b 9d3d eb8f e43d
00000270: e046 4d3d 2408 9bbb 2188 0d3e 24d7 2b3e
00000280: 681c 323d e724 183e 533e 933d 8f2c 063e
00000290: efe2 153d 868c 9b3d 2545 753e 2f60 633e
000002a0: 6c49 d63d 4161 273e fdbc ff3d ea91 cb3d
000002b0: 44fa 88bc a95f 5b3e 609c 773c ce38 7d3d
000002c0: 2942 b33d a9b6 0f3e 6e1f 283e 971e a93d
000002d0: ad62 633e 8480 ee3d 78bd 57bc e710 9a3d
000002e0: 1378 de3d aa5b c63d c738 2e3d 3b36 fd3c
000002f0: 796d 173d 83a4 203e 988e 113e 3f2f b43d
00000300: 6756 0f3e b2f5 c93d 1767 fb3d 00fb 6f3d
00000310: 61b6 d53d 2f38 9d3d 5a7d 0e3e 3522 c23d
00000320: 6c15 153e ab13 2ebc e257 9e3d a170 683d
00000330: 0765 dd3d 589a d9bd 23b8 653e 017a b63d
00000340: ef09 4d3d cd17 183e 45a4 533d d75f 143d
00000350: 3347 193e ffa8 083d 19f3 14bc d3ea 163e
00000360: 17f2 373e 4f37 133e 5300 b93d 3978 383e
00000370: 04d4 a13d 1651 813d a26b cf3c 91e8 1dbc
00000380: 1af3 883d d276 26bc 969b 403e 00e3 24bc
00000390: 0d0f 7f3e 17af d23d 707f 063e 1161 a93b
000003a0: 08a8 463e c853 163e a6d0 8a3c 00ad 0e3e
000003b0: 0ba5 843c ad07 593e f1a7 ed3d a5bd 333b
000003c0: 3295 c33c 97ef aa3d 8002 0e3d adea 1a3e
000003d0: 645d f13d 5016 9c3d 7045 08bd 97f6 153e
000003e0: 8267 ed3c b3bf d63d b108 b33d 8113 913c
000003f0: 27fb a83d 9890 d83c b1d6 223d 2c7d 4e3c
0.02733374 -0.36356157 -0.102813326 -0.09487602 -0.19474927 -0.026636243 -0.4001288 -0.09678303
-0.3594038 -0.19977874 -0.12642583 -0.123999804 -0.096377976 -0.0657423 -0.041776925 -0.17421585
-0.16147959 -0.21828343 -0.1818368 -0.11680752 0.13627131 -0.13762526 -0.14243354 0.17569025
-0.34478042 -0.017553823 -0.19835739 0.036135454 -0.2987271 -0.04913468 -0.0015918827 0.028107883
-0.20757876 -0.32107005 -0.20426859 -0.24861446 -0.026911894 -0.20542546 -0.17754692 -0.25523216
-0.076471165 -0.35259804 -0.28000244 -0.309429 -0.09024543 -0.020325536 -0.097849935 0.042251818
-0.26954558 -0.14610314 -0.12866375 -0.3978469 -0.19930884 -0.18600135 -0.103272654 -0.28942966
-0.12436537 -0.049892355 -0.08493767 0.1203754 -0.171697 -0.15983465 -0.17767432 -0.21180692
-0.23273158 -0.23902045 0.117393464 0.16274843 -0.3163468 -0.14082105 -0.35880172 -0.010759454
-0.019918708 -0.05689245 -0.12669942 -0.24606523 -0.2754298 -0.17062429 -0.119591445 -0.051283743
-0.17437623 -0.15728363 -0.3131362 -0.10698786 -0.16992132 -0.16252683 -0.022761524 -0.08019378
-0.04041574 -0.17573975 -0.14793622 -0.116931155 -0.12237386 -0.12586743 -0.20039164 0.011982514
-0.051511265 -0.029042551 -0.19543871 0.014041941 -0.1117692 -0.15302952 -0.10386046 -0.20078768
-0.22230425 -0.16886821 -0.27216938 0.26196527 -0.2105039 -0.081442244 -0.1337841 0.06456888
-0.08859801 -0.05857711 -0.17413378 -0.2632701 -0.25925562 -0.28380665 -0.0066603455 -0.14897975
-0.21323563 -0.22696513 -0.41159925 -0.38015318 -0.18782616 -0.34627128 -0.20634247 -0.24666004
0.10448345 0.09576987 0.112938054 0.095649354 0.16918644 0.05094825 0.24859366 -0.048907857
0.15700568 -0.04857071 0.052480772 0.17897755 0.06587985 0.086888775 0.122068256 0.14933331
0.12876432 0.14975025 0.14400426 -0.0038430432 0.16430975 0.17023453 -0.018241862 0.08764078
0.1006505 0.06492641 0.07671281 0.11160263 0.05011642 -0.004731195 0.1382146 0.16781288
0.04348412 0.14857827 0.07189622 0.13102935 0.036593374 0.07595162 0.23952158 0.2220466
0.10463223 0.16345693 0.124872185 0.0993994 -0.016720898 0.2142321 0.015112966 0.06182175
0.087528534 0.14034523 0.1641824 0.08257788 0.2220561 0.11645606 -0.013167731 0.07522755
0.10862746 0.09685452 0.042534616 0.030909648 0.036969636 0.15687756 0.14214551 0.08798074
0.13997804 0.09861316 0.12275522 0.05858898 0.10435177 0.07676732 0.13915005 0.09479181
0.14558953 -0.010624806 0.07731606 0.056748036 0.10810285 -0.10625142 0.22433524 0.08909989
0.0500583 0.1485283 0.05167033 0.036224212 0.14968567 0.033364292 -0.009091162 0.14738016
0.17963444 0.14376567 0.09033265 0.18014611 0.07901767 0.06314294 0.025319878 -0.009637968
0.06686993 -0.010160165 0.18809351 -0.010063887 0.24908085 0.10287302 0.13134551 0.005169042
0.19400036 0.14680398 0.016945194 0.13933182 0.01619198 0.21194334 0.11604298 0.002742627
0.023874853 0.083464794 0.034670353 0.15128584 0.11785391 0.07621443 -0.033269346 0.14644848
0.02898002 0.104857825 0.08741892 0.017709495 0.082510285 0.026436135 0.039755527 0.0126030855
