src/tricks_gru.onnx (onnx, 360261 bytes, 6 tensors)

embed.weight f4 [78, 64]
00000000: db45 12bf 740b 7fbf 16f9 2140 1ec4 a4bf
00000010: 9914 56bd 4f34 e03c 88d4 00bf 37f2 a6bd
00000020: fda2 82be 6781 823f 5e06 b3be f5de b7be
00000030: ebb8 163f 01e0 11bf 9ecc dd3f e210 313f
00000040: 5ef8 9ebe 00a8 b9bf b706 1240 9564 ea3b
00000050: 6cf0 ed3e e7f7 a43f a57b 073f 79cb 883f
00000060: 287a c13f 6c68 183e 3ee9 94bf 88a4 abbe
00000070: d186 783e 299a 193f 1b6a 803f 5f1a 993f
00000080: 2fbf 013e 10a8 173e f62a 3abf cf08 623f
00000090: 9f32 5f3f 9d4c d2bf e3cd af3d 3570 7a3f
000000a0: 0c2c d0bf 46cd e5bf 8ec7 8fbe 6136 f6be
000000b0: c754 d63f 8498 373f cc65 6ebf 04cd d3bd
000000c0: b662 f4bf bf96 863f 60ce 8abe efc0 ffbf
000000d0: 33f5 d83f 7c3d d5be 4296 4d3f 3201 34bf
000000e0: 35ec 343e 9418 ea3e 259f 1c3d c5ff 973d
000000f0: 6475 e93f 5392 c63f 3928 c73f f879 2f3f
00000100: 8609 9a3e af96 3bbe 3755 0e40 6748 dfbf
00000110: 2f56 863f 52d0 c23d 2635 f33e 39bf 293f
00000120: 5de6 c3be 8fdb 9abf ffa4 b93e fdbf 59bf
00000130: 7414 9cbd 2b07 713f 47c7 e93e d61e 0a40
00000140: 0993 e0be 8fd7 ab3f 9455 bab9 549d 09bf
00000150: 208e fa3e 9746 9dbe 9a36 953e 6389 e53e
00000160: 64b9 cd3e 4524 be3d 6955 82bf 58e0 863f
00000170: 0c10 35c0 bd24 8a3f e8cd 903f 9154 f0be
00000180: e6f7 6bbf 53a8 ba3e 4ca2 403c 33b3 1a3f
00000190: 5d22 ee3f daa0 c9be 4c5b ca3e c25d 9fbf
000001a0: b094 e13d c1de 75be f423 91be 4e42 7ebd
000001b0: 152b fcbe d101 89bd f336 5fbf d04f ec3e
000001c0: 5376 04be e1cf 253f 3dba b73e d929 b33f
000001d0: 0b04 d93e d0fd 81bf cca3 b2be b189 903f
000001e0: a56c 993f df6c 0940 3b3b f43f 9ecc 003f
000001f0: 41e1 773f 1bae 633e d224 33bf efbe 9cbd
00000200: 112e b23f d490 8ebe 1fcc 8ebf bcba 9cbf
00000210: c334 eb3f 93cf 86bf 6f68 423e a347 643e
00000220: 03ae fabe e150 b5bf 2063 2bbc 3ee7 c5be
00000230: 4141 803f 5983 063f e40f 8ebf ab63 053f
00000240: 05c2 56c0 fb09 49bf 640b a53f 9e5c acbe
00000250: 8814 67be e99f e03e 8647 a3be e6cc 99be
00000260: 3c50 c4bf ed7a fe3e f706 e03d 45b7 2bbf
00000270: 8ef0 87bf 5ccb ff3f 01b7 523f adff 98bf
00000280: f88a 85bf fe60 0cbf f40b 3dbe 753e 6e3e
00000290: eed6 d3bf 2a12 21bd 974d a9bf aeb9 ee3f
000002a0: 7006 ddbf 9504 2e3f d3fd b53f b197 57bf
000002b0: 7672 5bbf 4c08 7c3f 8704 ccbe 6037 103f
000002c0: c372 3cbf d8e5 29bf 0589 a73e c5bd 20bf
000002d0: 9d72 403e 25a7 9a3f 608b 393d e563 05bf
000002e0: 4ce6 253f 2f96 babf 8c49 8dbf f2ed 5ebf
000002f0: 1ab9 8bbe 6b3b 7e3f ee96 973e bebc 8a3f
00000300: e7a2 b1bf b941 c53f 7819 78be 082f b2be
00000310: 0ef2 3a3e 0e3c 71bf f556 0a40 094d 6bbf
00000320: 9053 c63e 3b47 92be e755 e2bf 317d 393f
00000330: 3774 b7bf f010 60bf b87a 2cbf e5b1 7e3e
00000340: 0d83 5f3f e261 e1bf 7151 833e 29cb fe3e
00000350: 25ec b43f eb2e 59bd fb76 f93f 3ac4 a3be
00000360: 5279 83bd d325 313f a680 9e3f ddb4 a3be
00000370: ea33 abbf e49e f4bd 56a0 6c3f 514e 79bf
00000380: 2fa2 5b3f ae69 bdbe c76b 8d3e 59ea b8be
00000390: 9a44 583f 50fd 193f 3a5b 5b3f c743 16c0
000003a0: 235c 823d dae5 d93f 9838 9b3e a455 ac3e
000003b0: 7f0a 8d3e f683 653f cf43 cc3e 063e 8d3e
000003c0: 808d 703f a879 483f 255c fa3e e5be 68bf
000003d0: 36fb 68bf 3cec a2bf ccd8 1e3f b832 adbf
000003e0: 8e5a 8cbf adbd 803f 3735 473e b440 013d
000003f0: 848f 053e a6ea 0fc0 5061 dfbf 3905 2140
-0.5713784 -0.9962685 2.530828 -1.287235 -0.052265737 0.027368693 -0.50324297 -0.081516676
-0.25514975 1.019574 -0.34965795 -0.3591229 0.5887591 -0.5698243 1.7328069 0.69166386
-0.31048864 -1.4504395 2.2816598 0.0071531036 0.4647249 1.2888154 0.5292304 1.0687095
1.5115404 0.14883584 -1.163368 -0.33523965 0.24270178 0.60000855 1.0032381 1.1961173
0.12670587 0.14810205 -0.72721803 0.8829469 0.87186617 -1.642963 0.08584192 0.97827464
-1.6263442 -1.795327 -0.28081936 -0.48088363 1.6744622 0.71717095 -0.9312408 -0.10341838
-1.9092624 1.0514754 -0.27110577 -1.9980754 1.6949829 -0.4164847 0.803074 -0.70314324
0.17668231 0.45721877 0.03823771 0.07421831 1.823895 1.5513405 1.555915 0.68545485
0.3008539 -0.183192 2.223951 -1.744397 1.0495051 0.0951239 0.47501487 0.6630741
-0.3826169 -1.2098254 0.36258695 -0.85058576 -0.076210886 0.9415156 0.4565985 2.158132
-0.4386218 1.3425158 -0.00035540445 -0.5375569 0.48936558 -0.30717918 0.2914322 0.4483138
0.40180504 0.092842616 -1.0182315 1.0537214 -2.8291044 1.0792462 1.1312838 -0.4693952
-0.9217514 0.36456546 0.011757445 0.60429686 1.8604237 -0.39380533 0.3952278 -1.2450488
0.11014688 -0.24010755 -0.28347743 -0.06207495 -0.4925162 -0.066897996 -0.8719322 0.46154642
-0.12935762 0.64770323 0.35884276 1.3997146 0.42385897 -1.0155582 -0.34890592 1.129202
1.1986281 2.14727 1.9080576 0.5031222 0.96828085 0.22234385 -0.6997806 -0.07653605
1.3920308 -0.2784487 -1.1156043 -1.2244487 1.8375477 -1.0532097 0.18985151 0.22292952
-0.48960885 -1.4165307 -0.010460645 -0.38652986 1.0019914 0.5254417 -1.10986 0.52105206
-3.355592 -0.78530854 1.2894101 -0.3366441 -0.22566426 0.43872002 -0.31890506 -0.30039138
-1.5336986 0.4970316 0.109388284 -0.6707652 -1.0620286 1.9983935 0.8231049 -1.1953026
-1.0433035 -0.548355 -0.18461591 0.23266013 -1.6549966 -0.039323963 -1.3226804 1.8650415
-1.726759 0.6797574 1.4218086 -0.8421584 -0.8572153 0.9845016 -0.39847204 0.56334496
-0.7361261 -0.6636634 0.32721725 -0.62789565 0.18793721 1.2082258 0.045298934 -0.5210555
0.6480453 -1.4577082 -1.103807 -0.87081826 -0.2728966 0.99309415 0.29607338 1.083885
-1.3877839 1.5410682 -0.24228466 -0.34801507 0.18256399 -0.9423226 2.1615574 -0.9191442
0.38735628 -0.2856997 -1.7682465 0.7245665 -1.4332341 -0.87525845 -0.67374754 0.24872549
0.8730934 -1.7607996 0.25648072 0.49764374 1.4134566 -0.05302326 1.9489435 -0.31985646
-0.064196244 0.6919834 1.238301 -0.31973925 -1.3375218 -0.119443685 0.92432153 -0.97385126
0.8579435 -0.3699469 0.2762129 -0.36116293 0.8447968 0.6015215 0.85686076 -2.3478868
0.0636523 1.702327 0.30316615 0.3365909 0.2754707 0.8965448 0.39895484 0.27586383
0.9396591 0.7831063 0.48898426 -0.9091628 -0.9100832 -1.2728343 0.62049556 -1.3531103
-1.0965135 1.0057884 0.19453894 0.031555846 0.13043028 -2.2486968 -1.7451572 2.5159438

fc.weight f4 [78, 128]
00000000: 4d16 593d e4ef 48be 1eea 02bd 030a e3bd
00000010: 9197 d6bd f80c 3cbd c1ce 073d 592d a7bd
00000020: df54 8f3c 3a65 adbd ace8 263e a158 cdbd
00000030: 49b4 af3d 9833 933d 8531 1e3d 7809 68bd
00000040: 9330 0d3d d252 103e 0940 9c3d 23b2 063e
00000050: 9f30 dabc af5e 873d 77f5 01be 4829 d6bc
00000060: 9809 403e 753c f3bb cf08 48bd 2bf0 1d3e
00000070: e1d4 50bd cc33 ed3d 5365 63bd b35c 40be
00000080: ed0f 65bd 8f75 35bd cd49 cd3d 913e 043d
00000090: 10fa c8bc 5c88 e7bb bff7 933d 4668 ebbd
000000a0: 0647 02be 8836 18be b95b 29bd 9a40 713d
000000b0: 9ef9 aa3d 4336 ebbc c529 073e 5e14 893d
000000c0: 4edf 33bd dc27 35bc 6784 13be c8a3 b63d
000000d0: f980 893d 37b1 823c 8931 bf3b 2992 4dbd
000000e0: 8b45 a33d 3008 ef3d 7fa6 b4bd e27e 893c
000000f0: e879 06be 282b 2cbd c44c 043e 8364 7abb
00000100: 4033 5ebe c39a 533e 06d1 463e bbd1 c8bb
00000110: 8d82 1fbd 8c2a b93d 1ab6 b53d c4ea 79bc
00000120: c2cb 2fbe cd05 45bd 7006 b3bd 471e 533d
00000130: 8850 d43d f277 bdbd 0b3c 8f3d 8c53 0fbe
00000140: 9dfe f6bd 39bb 453d fe99 f83b 6e55 f93d
00000150: 1656 9a3d 5707 68bc 7830 0dbe fec8 39bd
00000160: 1cf1 343e 7a0e a53d e775 76bd db46 533d
00000170: 2ff6 b83d a498 763c a27c 7c3d 4b8b ed3d
00000180: 2a08 0e3d 300f 2b3d 5fa7 423d 9048 1abe
00000190: 9727 88bd 7cf8 3abe a316 973d 151d 23bd
000001a0: 1deb d83c d8c5 32be 924c 0c3e ccac a23d
000001b0: e233 153d f730 cdbd 45b4 973d 611a 2bbd
000001c0: dfba 913d 8288 163e 9eee 3b3d 750c 003d
000001d0: b9cc c13b 5f2d e33d 0cde 933d a58b 163e
000001e0: 473b edbd 1102 0f3d 1b3a 6c3d 9991 9c3d
000001f0: 1904 4cbe e3ce 203d 7bc0 fbbd c869 153e
00000200: e2e8 bdbc 7b7a d13d a339 a0bd 9609 aabd
00000210: c565 3fbd 34ff 5fbd bfb0 28be 0ac7 10be
00000220: ad8a 9cbd efa4 723b 8ea7 543d 472f debd
00000230: 74aa 25bd 9d97 013e 0d8c f73d cb3f 823d
00000240: 7210 2bbd 3490 a23d 6755 003e aa45 31be
00000250: 8aff 3f3e e60e 633d c125 f63d 4959 cebd
00000260: 958b 17be f128 e73c 9941 babd 1924 e73d
00000270: 3148 c03d ad00 2f3c 6667 e9bd 24ca 36be
00000280: 4b0b 04be 0bc5 89bd af5e e23d 2686 973c
00000290: ec5e 9f3c 5b4f ccbd a863 af3d 2dc1 213e
000002a0: 7ab4 b6bd 20ec eabd dd83 f7bd d30e 363d
000002b0: 3471 a03d 3f69 8a3c 236e 8fbd f118 2e3e
000002c0: e0d3 08bd ed93 fd3b 4fc4 0f3e bfea ad3d
000002d0: 92c0 23be f8ba 3abe 6137 ab3d 9225 543d
000002e0: 77c3 ea3c 9fff 8f3d f2d7 d93d c588 2c3d
000002f0: 7647 7f3d 8217 da3d 104f 063e 6276 413e
00000300: d993 c93d d050 90bd 1dba bbbd e5a3 d2bc
00000310: 80d6 b3bd 39a9 d93d fdab 373d 8a29 a3bd
00000320: cc14 c93d 7f70 d4bc 6e37 c43d e96f e33d
00000330: 97ca 253e 36c7 04be b4a2 c33d f1fa e93d
00000340: 12cf 2ebe e5c1 0c3d d93e 303e 4bd0 b13c
00000350: f1b9 3abe 7d74 bb3d f7e1 80bd 0dc7 cf3d
00000360: b7a0 913d a3b0 113e 8c33 94bd 6b70 bebb
00000370: ece2 fd3d 8cd8 b0bd 1c06 663d 1978 f9bc
00000380: d9b0 ba3d fc80 bf3d e210 9c3d 1486 343d
00000390: e684 d0bd ac9c 133d 5971 adbc ddea ddbd
000003a0: 552b 023e 8180 eabd 86ab 5c3d 0aba 05be
000003b0: 73cb 1fbc 5963 053e 08d2 d63d f4ba 01be
000003c0: 980c dc3c 82a0 073e b719 a6bd b9d0 6b3c
000003d0: fde0 ec3d a3e8 da3d 73b1 d03d 09ed 603d
000003e0: f5ac eabd 520d 25be 28f6 cebd 7c67 033e
000003f0: bcb1 eb3c 5601 1f3d eeea 793b 3131 cebd
0.052999783 -0.19622761 -0.031961553 -0.11085894 -0.10478128 -0.045910805 0.03315616 -0.08162946
0.017496524 -0.08466573 0.16299695 -0.1002667 0.085793085 0.07187575 0.038621444 -0.056649655
0.034470152 0.14094093 0.07629401 0.13153891 -0.026634512 0.06609856 -0.12691294 -0.026142731
0.1875366 -0.0074229785 -0.048836526 0.15423648 -0.050984267 0.11582145 -0.055516552 -0.18785362
-0.05592339 -0.044301566 0.10023842 0.03228623 -0.024533302 -0.007065816 0.07224988 -0.11494498
-0.12722406 -0.14864552 -0.04134724 0.0588995 0.08348392 -0.028712397 0.13199528 0.06693338
-0.04391413 -0.0110568665 -0.14405976 0.089179575 0.06714053 0.015953643 0.0058347625 -0.050188217
0.07972249 0.116714835 -0.08820819 0.016784135 -0.13132441 -0.042033345 0.12919909 -0.0038206882
-0.21699238 0.20664506 0.19415674 -0.0061285174 -0.038942862 0.09041318 0.08872624 -0.015253726
-0.17167571 -0.048101235 -0.08741462 0.051542547 0.103669226 -0.092513934 0.06993874 -0.13996714
-0.120602824 0.048274253 0.0075867167 0.121744975 0.07535951 -0.014161906 -0.1378802 -0.045357697
0.17670101 0.08059402 -0.060171034 0.051581245 0.09031331 0.015051041 0.061642297 0.11598834
0.034675755 0.04176253 0.0475229 -0.15066743 -0.06648176 -0.18258852 0.073773645 -0.039822657
0.026479298 -0.17458284 0.13701084 0.07943115 0.036426432 -0.10019105 0.074074306 -0.041773204
0.07115721 0.14700511 0.04588186 0.03126188 0.0059142974 0.11092638 0.072200865 0.14701708
-0.11583572 0.03491408 0.0576726 0.07644958 -0.19923438 0.039259803 -0.12292572 0.14591134
-0.023182336 0.102284394 -0.07823493 -0.083026096 -0.046727914 -0.05468674 -0.16473673 -0.14138427
-0.07643638 0.0037024578 0.051917605 -0.10848861 -0.04044576 0.12655492 0.120872594 0.06359824
-0.04176373 0.07937661 0.12532578 -0.17311731 0.18749824 0.05543413 0.1201892 -0.100756235
-0.1479934 0.028217765 -0.09094543 0.11286182 0.093887694 0.010681313 -0.11396675 -0.17850548
-0.12894933 -0.06727036 0.11053216 0.018496584 0.019454442 -0.09976073 0.0856393 0.15796347
-0.08921142 -0.114708185 -0.12085698 0.04444773 0.07834092 0.016895888 -0.07003429 0.17001702
-0.033405185 0.0077385814 0.1403973 0.0849204 -0.15991428 -0.18235385 0.08360172 0.051793642
0.028657658 0.07031178 0.106368914 0.04212262 0.06232401 0.10649015 0.13116097 0.18892816
0.09842653 -0.07046664 -0.09166358 -0.025712917 -0.08781147 0.1062798 0.044841755 -0.07966907
0.0981842 -0.025932549 0.09580885 0.111053295 0.16190563 -0.12966618 0.095525175 0.114248164
-0.17071179 0.0343646 0.17211474 0.021705767 -0.18234994 0.09153078 -0.062930994 0.10145388
0.07110732 0.14227538 -0.07236394 -0.005811741 0.123967975 -0.08635053 0.05615817 -0.030452775
0.09115762 0.09350774 0.07620408 0.04407318 -0.10181598 0.036038086 -0.021172212 -0.10835812
0.12711842 -0.114502914 0.053874515 -0.1305925 -0.009753096 0.1302618 0.10489279 -0.12668973
0.026861474 0.13244823 -0.081103735 0.014393025 0.115663506 0.10688903 0.10190096 0.054913554
-0.1145877 -0.16118363 -0.10105544 0.12832445 0.028771274 0.038819633 0.0038134414 -0.10067976

fc.bias f4 [78]
00000000: e52a 0fbd 0b83 a83c 28ae 57bc 2078 33bd
00000010: ad30 3d3d 7704 db3c 90c9 c8bc a1cb 963d
00000020: 49e5 9bbc 686c 323d c5cc 793d a28c 99bc
00000030: 72bc 3dbd 6090 75bd ae04 c0bd 4ca7 f0bc
00000040: dbf5 b63d faf5 81bd 2357 0abe a772 b4bd
00000050: 2b2a 5cbc 4a88 99bd d0bc 66bd 396b ae3c
00000060: 62d2 96bd 2952 723d fb85 b0bd 5682 06bd
00000070: 1576 99bd 2880 d0bd 7e9f 60bb 4a3d 8dbd
00000080: a074 a33d 0d9a 10be 4b37 c6bd 73f2 513d
00000090: 01d3 89bd 85ad 82bc 1119 183a e79d 21bd
000000a0: 4ea7 1abd 5644 a4bd ed28 56bd 7223 eb3b
000000b0: 1212 49bd d8f8 aebc 470b 9fbd acdd c83b
000000c0: 9500 00bc 8176 acbd 50ea 73bd 3c5f f6bd
000000d0: e176 ebbd aa02 30bc 15c7 afbd 0ef9 673c
000000e0: 715c 9bbd e54d a53d f344 5f3d 239a 36bd
000000f0: 518a 87bd f241 723c ee3a 6bbd bd64 05bd
00000100: d5c9 963d b32d 4e3d 1466 893c 9410 2abc
00000110: 7c58 0d3d 1dea 2abd 7bb0 55bc 9c06 733d
00000120: 47bd 2d3d ceb4 313d d307 20bd 010e 1d3d
00000130: 938a bcbd 392a 563b
-0.034953017 0.020570299 -0.013164081 -0.043815732 0.046189 0.026735527 -0.024510175 0.07363058
-0.01903023 0.043560416 0.0609863 -0.018743817 -0.046322294 -0.05995214 -0.093758926 -0.029376648
0.08933612 -0.063457444 -0.13509803 -0.08810931 -0.013437788 -0.07496698 -0.05633241 0.021291362
-0.07364346 0.059160385 -0.08619305 -0.03283914 -0.074932255 -0.10180694 -0.0034274752 -0.068964556
0.07981229 -0.14121266 -0.09678515 0.05125661 -0.06729699 -0.015951881 0.0005802075 -0.039457228
-0.03775721 -0.080208465 -0.052285124 0.0071758563 -0.0490895 -0.021358892 -0.07765823 0.006129941
-0.007812639 -0.0842104 -0.05954963 -0.12029883 -0.11497284 -0.010742823 -0.08582894 0.0141585
-0.07585991 0.08071498 0.054509114 -0.04458059 -0.06618179 0.01478623 -0.057429247 -0.032566775
0.07362715 0.05033655 0.016772307 -0.010379929 0.034508213 -0.041727174 -0.0130425645 0.059332475
0.042416837 0.04338532 -0.03906996 0.038343433 -0.092061184 0.0032678975

onnx::GRU_110 f4 [1, 384, 64]
00000000: 00da 513d 443c ae3c a1db 7b3d ea99 b13c
00000010: 72e7 c4bd 634a b03d d035 133d 9453 933d
00000020: 50ca 80bd 839a 3b3d d276 c73d 2e0f be3c
00000030: 02eb 353d 9721 a33d 98dd ee3c d30c afbc
00000040: 88ec 703d 6a67 0a3e a1bd 24bd 4651 403d
00000050: e929 96bd 4141 f3bd bd2d 55bc 4b19 4f3d
00000060: 0ec6 30bd 4d71 333d 4a94 6d3c d71f 12be
00000070: b7fa 95bd 9f0f 6f3c 31f1 97bc e5e6 0bbc
00000080: 2b6f 3a3d 5f1d 4bbd 740a 203e 9c1d e5bd
00000090: b45f 89bd aeb4 8abc 5744 aa3d d21e 2c3d
000000a0: 74dc 82bd 2839 17be 9ce1 88bd 351f 0d3d
000000b0: 0247 b83d 3944 05be 4d71 7a3d dfcf aebd
000000c0: 1f39 85bd b0de 57bc 2f58 b53c a087 a53d
000000d0: a41a 803d cb1a 8c3d fc1d c7bc ec71 c73c
000000e0: cb2e f03d 66ad 90bc 696b 0c3e 7ff8 b33c
000000f0: ea3a 333d 60bb 65bc 1a1e 993c 454d 09bd
00000100: 7ca2 e03c ae83 53bd 96fc cbbd 0391 cf3d
00000110: 2ebc 5dbc d2b0 633d b45e e83d 3ae0 e33c
00000120: 487b b3bd fa6f d9bb ce9b 4e3c 54c0 01be
00000130: 36e8 003e 9ef3 86bd 31de 5c3c ad54 ae3d
00000140: 5889 033e 8618 90bb 5eca 453b bfeb d3ba
00000150: 12aa cbbc 8622 07bc b9bd a73c 5040 053b
00000160: ddb8 5d3d b3ab a8bb 6acf 7d3d d3bb 9d3c
00000170: e31f a43c b863 b73b 7346 9abc 7a7e 80bd
00000180: 0d22 423d 7b34 1abe edf4 173e 9b0c ab3c
00000190: bab3 2abd 7247 323d bf52 fc3a a148 89bc
000001a0: b90f e03d 729b e1bd 0169 2cbd afe4 573d
000001b0: a09d 603d c6b2 1dbd 5274 983d 358f 0b3d
000001c0: 6053 32bd c088 66bd 3cd8 9abc 045a fdbd
000001d0: abad 09bd 0079 2ebd a37c d63d 31a9 1a3c
000001e0: 49ae d4bd fff1 353d 3372 913d b8ee 5c3d
000001f0: 7b79 693a 6114 b53d c4a4 febc 6b8a b63d
00000200: d093 d23c b913 52bd 4798 233d 27e6 a33c
00000210: 5b0f 4d3d 31f9 a2bd 3923 8e3a d8b2 25bd
00000220: 062a 863d 63ae 85bd f5dc 913d c8b6 25bd
00000230: 397b c13d c190 18bc 7ab0 d83d e89c adbd
00000240: 0965 583d 9104 e03b 3000 4e3d b296 c93d
00000250: a085 b0bc 6504 d5bd a46b 373c 221a 843d
00000260: f474 cbbd f6c3 aa3d 48f0 59bc 9534 0b3b
00000270: 2de9 87bd 1ed9 03bd d5f8 0cbe 5b8c febd
00000280: a92b 7fbd ecc9 0e3d c6a1 d73d 26dd 5ebd
00000290: bdef 5f3d 1c92 0f3e 782c a63d 15e7 913d
000002a0: 5f6f 42bd bf89 8f3d b34c be3d bbb1 70bc
000002b0: 24af a1bd 636b 1aba 3b2a a03d a1f7 813d
000002c0: a358 bebb fe81 a13d edcb e63c 62bd cebd
000002d0: df97 133c c06d 533c 3904 613d 34e6 933d
000002e0: 9e0e aabc e149 9cbc 069e 6abd 083b 1ebd
000002f0: 9b5c aa3c d4cd 22bd cb28 0fbd bb1c 59bd
00000300: 32e1 ff3d a3f4 5abd ee49 f73b 8a19 ec3d
00000310: 537e 3b3d 21a9 23bd e0d0 643d 4d4d 9c3b
00000320: f3ed ebbd 7093 d8bc f91a 613c f882 e5bd
00000330: 804c 5d3d a2ff 8bbd fe83 3bbd 5b11 d63d
00000340: e04e c8bd fb5b 143d 458e c2bc fcd2 b93d
00000350: 62a8 d3bd 3a48 cd3b 0dd9 c3bd 1d1e 06be
00000360: 15d8 35bd 55d9 103d 99eb 893d 7247 99bb
00000370: 2a66 66bd c919 7c3a 986b eebc 590a 0e3e
00000380: 04e8 02bc d52b 333d ef49 6abd e311 843c
00000390: 07e3 a63d 7917 3a3c ce7f 85bc b3a1 c43d
000003a0: 7925 753d 107e b13d 13da 38bd ee5c 81bd
000003b0: bb1f d4bd f964 ef3c a3ab d13d 8188 003c
000003c0: e7dc d8bc 49b1 9abd b04c 3ebd 91ff ccbd
000003d0: b876 06be f68a 5f3d 4b2f f13c 2e75 103d
000003e0: f728 d83c 945b 09bd 1205 aebc 363f 5cbd
000003f0: b320 d3bd 5d0c 05be d6fb 7c3c e07f a8bc
0.05123329 0.021268971 0.06148875 0.021679837 -0.09614457 0.08607938 0.03593999 0.07193676
-0.06288588 0.04580165 0.0973946 0.023200598 0.044413574 0.07965391 0.029158399 -0.02136842
0.058819324 0.13516012 -0.040219907 0.04695251 -0.073322125 -0.118776806 -0.013011393 0.05056123
-0.04315763 0.043809224 0.014500687 -0.14269958 -0.07323211 0.014591127 -0.018547626 -0.008538936
0.045516174 -0.049588557 0.15628988 -0.11187288 -0.06707707 -0.016931858 0.08313816 0.04202158
-0.06389704 -0.14767897 -0.066836566 0.03445359 0.08997919 -0.13014306 0.06114321 -0.08535742
-0.065050356 -0.013175651 0.022136776 0.08082509 0.06255081 0.06841048 -0.02430629 0.024346314
0.11727675 -0.017660808 0.13712849 0.021969078 0.043757357 -0.014021724 0.018691111 -0.033520956
0.027421229 -0.05163925 -0.09960286 0.10135081 -0.013533635 0.05558855 0.11346188 0.02781688
-0.087637484 -0.006635663 0.012610389 -0.12671024 0.12588581 -0.06589435 0.013480709 0.085122444
0.12845361 -0.0043974547 0.0030180435 -0.001616828 -0.02486137 -0.008247977 0.020476209 0.0020332523
0.054131377 -0.0051474213 0.061965384 0.0192546 0.020034736 0.005596604 -0.01883242 -0.062741235
0.047395755 -0.15059082 0.14839526 0.020880034 -0.041675307 0.043525167 0.0019250734 -0.016758265
0.10940499 -0.11015977 -0.042092327 0.052708324 0.054837823 -0.03850057 0.07444061 0.03407212
-0.043536544 -0.05628276 -0.018901937 -0.12370685 -0.03361289 -0.042595863 0.10472991 0.009439752
-0.10384805 0.04442024 0.0710186 0.053938597 0.00089063466 0.088417776 -0.031084426 0.0891312
0.025705248 -0.05128834 0.039940145 0.020007206 0.050063472 -0.07957686 0.0010844237 -0.04045376
0.06550984 -0.06527402 0.07122222 -0.040457517 0.09447331 -0.009311856 0.10580535 -0.08477193
0.05283073 0.006836482 0.050293148 0.09843196 -0.021548092 -0.10401229 0.011195097 0.06450297
-0.099344164 0.08338158 -0.013301916 0.0021241058 -0.066362716 -0.03218948 -0.13766797 -0.124291144
-0.062297497 0.034860536 0.10528903 -0.054410122 0.05467199 0.1402058 0.081139505 0.071241535
-0.047469493 0.07008695 0.09291973 -0.014690812 -0.078947335 -0.00058906357 0.07820555 0.063460596
-0.005808906 0.07886122 0.028173411 -0.10094716 0.009008377 0.012904584 0.054935668 0.07221642
-0.020758923 -0.019078197 -0.05727961 -0.038630515 0.02079611 -0.039747074 -0.034951013 -0.053005915
0.124941245 -0.05345596 0.007546655 0.11528309 0.04577477 -0.039956216 0.05586326 0.004769957
-0.115199946 -0.026437491 0.013739341 -0.11206621 0.054028034 -0.068358675 -0.045780174 0.10452529
-0.09780669 0.036220532 -0.02374948 0.09073445 -0.10334851 0.0062647136 -0.095628835 -0.13097425
-0.044395525 0.035363514 0.0673439 -0.0046777064 -0.056249775 0.00096168794 -0.02910404 0.13871135
-0.007989887 0.043742973 -0.057199415 0.01612181 0.08148771 0.011358135 -0.016296294 0.09601154
0.05985019 0.08666623 -0.045129847 -0.06316553 -0.103576146 0.029222952 0.10237815 0.007845045
-0.026472522 -0.07553346 -0.046459854 -0.10009683 -0.13131225 0.054575883 0.029441496 0.035268
0.026386721 -0.0335346 -0.021242652 -0.05377122 -0.10308971 -0.12992997 0.015440902 -0.020568788

onnx::GRU_111 f4 [1, 384, 128]
00000000: 7b71 af3d 5c83 09bd 612f ad3d 3062 673d
00000010: 0171 23bc 9d6c 4c3a 1110 4ebd 5b80 5a3d
00000020: a3ac e13d 6f88 ab3d 59d7 3d3c 5df0 13be
00000030: 5fba c7bd 37ab 29bd 95a5 7abd 3d63 4ebd
00000040: 7570 7b3d cb45 813d 634d a0bd b4a5 58bc
00000050: b5a3 0a3d bba6 913c 6442 a83c 8cbd ad3c
00000060: 991a fb3d d8e2 8bbc cdd1 d13d 0c99 46bd
00000070: e9ca 70bd ec77 243d 38d0 a23d aea3 8abd
00000080: 368a 093e 9a31 023e b48e bebd 29c1 0bbe
00000090: 3667 9e3d 9cee 09bc 5d11 fdbd be62 b53d
000000a0: 8a38 8f3d 265f 113d 0240 c43d 5c50 083d
000000b0: 9b6f 72bd 2b0e 253d f8da 6fbc 7317 cc3c
000000c0: 881c 103d 56ff 253e 394c 09be df16 55bd
000000d0: d5ab c7bd 6feb 86bc 7368 513d b2d6 70bd
000000e0: aaa1 f53d c3d5 eabd cfe8 233d 9809 133e
000000f0: cd38 96bd 13e1 1d3e 18b1 e83b 63ae b9bc
00000100: a787 f7bd 59d5 e23d 3196 c53d d404 0fbe
00000110: d9b2 823d 0847 e3bb 0719 4dbd cf38 07bb
00000120: 6c3f 43bc 4906 89bd 3c30 29bc adf4 3abd
00000130: b131 1a3e 1dbe a03d eace 0fbe 0a3a f53d
00000140: 8f5f 09be 829a 8c3d d009 c93d 9fb6 efbc
00000150: 2e24 55bd e7f1 d8bd 1ef6 9aba 0a62 073e
00000160: 1fb3 45bd 65d0 a13d 2cb8 95bc dd7d 893d
00000170: 5572 6c3d d249 babc 50aa c0bd ef71 a2bc
00000180: 9b2c 19bd 8718 d6bc 9ca6 87bd 2a6b 95bd
00000190: 46b9 14bc 3f5e 533c 9a73 aebd 1526 5cbc
000001a0: 3b2b 55bd 6c99 4cbd 612c 093d d4c5 92bd
000001b0: e7e7 4abd 359a ba3d ec95 d7bc 09df 7c3d
000001c0: 77a7 17bd 5de1 8c3c 214a e7bd f502 ffbd
000001d0: f1a4 2ebd 6158 a1bd 9744 92bc 662c 0cbc
000001e0: efda 16bd 6322 86bd e57b 993d 85b0 a1bd
000001f0: b129 473d d8b1 ca3c fc96 053d 8697 3fbd
00000200: 3c09 4a3c 2232 93bd 2ec5 f43d e5a2 33ba
00000210: ed37 07be 0fd2 9a3c 0b65 9ebd 7d62 8e3d
00000220: 607d 123e 054a bb3d 00ae 10bd 7abf f2bd
00000230: dbac 77bd f189 8bbd 5c48 e6bd b6da d3bd
00000240: 7f14 263d f418 2fbd 3028 47bd fee3 2ebd
00000250: e9ad 663c 962b 06bc f78b 053e 692e 343d
00000260: 3454 8fbc 357a 883d 54be 683d 4d77 d63c
00000270: b4c2 60bd aea0 f23c bba2 ec3d 1f41 9a3c
00000280: 2ac7 0a3e 5e89 883d 769f 05be f8ce b7bd
00000290: bb70 223e 282c e43d 2445 243d 61af fcbc
000002a0: 7f5f 383e 5e21 603d 64df 803d 4e8a 1ebe
000002b0: a632 a93d 0ca8 873d db8a 023e 11d7 b13d
000002c0: 2aeb 283e 4b72 ad3d bec6 b7bd 5a7e e1bd
000002d0: 112e 25be 5bdf f8bd 4eaf 693d 2e79 2dbe
000002e0: 74ac 923d d1e0 30bc ad05 7f3d c6a1 a73d
000002f0: 8b35 00bd 38c6 ca3d 48cf 0a3c 48e7 243e
00000300: 35b7 bbbd a9c1 f33d 8276 cb3c 3a2d 94bd
00000310: e457 1e3d 26cc 473d f3d9 9fbd 09a3 b43d
00000320: 268a 21bd 8508 ccbd 621d 593d 5101 54bd
00000330: 03cb c43d cbd2 98bd c95b 5abc 7286 343c
00000340: 0acb a1bb 20c5 0e3d 11a4 003e 4e63 233b
00000350: eb06 9ebd 1e6c 17bd c46a 0f3e 7211 c63d
00000360: 62cb 30bc 0948 d73b c788 163c db02 313e
00000370: 3a81 8e3c 4d4d cbbc 8882 2bbe cbd3 a4bd
00000380: 8bc7 dcbb 54f3 bc3c 7fc9 edbd a3f0 71bd
00000390: 017f 4f3c 2e93 0abe 6f74 0cbe 72e9 833d
000003a0: c6a5 cebb 2a0a ebbd ae09 70bd 5602 34be
000003b0: 4b71 4bbd c7a0 02bc b02f e63d b8f5 c83c
000003c0: 99f5 a53d 552e 153e 474f a2bd 4f24 1ebe
000003d0: ceef 0cbe 3c5b 6bba 024d 38bc 8a5b 11bd
000003e0: cc77 b13d 5d5b 53bd 82d9 cf3d 89e9 21bd
000003f0: f828 36bd f77d cebd 842a e73b c1b1 803d
0.085665666 -0.03357254 0.084563024 0.056490123 -0.009975673 0.0007798167 -0.05030829 0.053345066
0.11019256 0.08375632 0.011586987 -0.1444716 -0.09752344 -0.04142305 -0.061193068 -0.05038761
0.061386544 0.0631214 -0.0782726 -0.0132231 0.03384753 0.017779699 0.02053947 0.021208547
0.122609325 -0.017075941 0.102450944 -0.0484858 -0.05878726 0.04015343 0.07949871 -0.06769501
0.1343163 0.12714234 -0.09304562 -0.13647904 0.0773453 -0.008418705 -0.123568274 0.08856724
0.06993206 0.03549113 0.09582521 0.03327976 -0.059188467 0.040296715 -0.014639609 0.024913525
0.03518346 0.16210684 -0.13407983 -0.052023765 -0.09749571 -0.016469685 0.051125 -0.0587985
0.119937256 -0.11466553 0.040016945 0.14359128 -0.07335053 0.1541789 0.0071011893 -0.022666162
-0.120864205 0.11075849 0.09647787 -0.13966686 0.06381769 -0.006935958 -0.050072696 -0.0020633226
-0.011916976 -0.06690652 -0.010326441 -0.045643497 0.15058018 0.07848761 -0.14043775 0.11973961
-0.13415359 0.068654075 0.09816325 -0.029261885 -0.052036457 -0.10593014 -0.0011822616 0.13220993
-0.048266526 0.07901076 -0.018276297 0.0671346 0.057726223 -0.022740278 -0.094074845 -0.019829718
-0.037396055 -0.026134742 -0.06623575 -0.072958305 -0.009077376 0.012900888 -0.08518143 -0.013436814
-0.05204318 -0.049951002 0.03348959 -0.07166639 -0.049537566 0.09111444 -0.026316606 0.06173614
-0.03702494 0.017197305 -0.11293436 -0.12451736 -0.04263777 -0.07878185 -0.017854972 -0.008555507
-0.036829885 -0.065495275 0.07494334 -0.078949966 0.048623744 0.024743006 0.032614693 -0.046775363
0.012331303 -0.071872965 0.119516715 -0.0006852581 -0.13204928 0.018898992 -0.07734116 0.06952379
0.1430564 0.091449775 -0.03532219 -0.118529275 -0.060467582 -0.068134196 -0.1124427 -0.1034445
0.04054689 -0.042748407 -0.04862231 -0.0426979 0.014079549 -0.008189103 0.13041674 0.043989573
-0.017496206 0.06663934 0.056822136 0.026179934 -0.054873183 0.029617634 0.11554476 0.01882988
0.13552538 0.06666826 -0.13049111 -0.08975023 0.15863316 0.11141235 0.040105 -0.030845346
0.18005179 0.05471932 0.062926084 -0.15482447 0.082616135 0.06623849 0.12748282 0.08683599
0.16495958 0.08469065 -0.08973454 -0.11010428 -0.16130854 -0.12151977 0.05705195 -0.16940758
0.07161799 -0.010795788 0.062261272 0.08185153 -0.031301063 0.099010885 0.008472271 0.16103852
-0.09165803 0.11902172 0.024836782 -0.07235189 0.038658038 0.048778675 -0.078052424 0.08820159
-0.03943839 -0.099625625 0.053006537 -0.051759068 0.09609034 -0.074620806 -0.013327547 0.011018382
-0.004937534 0.03485596 0.12562586 0.0024931016 -0.07716163 -0.036968343 0.14005572 0.09671296
-0.010790678 0.0065698666 0.009187884 0.17286246 0.017395604 -0.024817133 -0.16749012 -0.08048209
-0.0067376546 0.023065247 -0.11610698 -0.05906738 0.012664557 -0.13532707 -0.13716291 0.064410105
-0.006306383 -0.11476548 -0.05860298 -0.17579016 -0.04966859 -0.007972903 0.112395644 0.02453123
0.08103485 0.14568456 -0.07925277 -0.15443538 -0.13763353 -0.00089781336 -0.011248829 -0.03548769
0.086654276 -0.051600803 0.10148908 -0.039529357 -0.044472665 -0.1008262 0.007054629 0.06283904

onnx::GRU_112 f4 [1, 768]
00000000: 11d7 f2ba fd14 e8bd 5e53 21be 1709 6cbd
00000010: fdcb 99bd 9f80 97bd c82a 12bd 58bd 32be
00000020: cb63 02bc 72e1 a1bd 9d38 9139 9e76 03bc
00000030: 6d91 07be 43ec 18be 54c0 8fbd e522 2dbd
00000040: c232 edbb 29ba f4bb d6cc d7bd a9ff d5bd
00000050: 3732 a4bd 09a4 cbbc f11a dcbd ae2d 02be
00000060: f092 22be 3fcc 2bbe 0dc0 4dbc a69b a5bd
00000070: f12f 5bbd 2c96 adbd 75fc 14be d143 87bd
00000080: 95de fabc 9e84 cdbd f993 afbb b5f2 58bd
00000090: bfdc 1cbe caba cabd 541c 393c c853 32bd
000000a0: 3e20 0bbe a89b f9bd 4678 bebd 1754 c4bd
000000b0: 6aba c1bd 81fb 06be 2880 84bc 1a14 cfbd
000000c0: aa5c acbd bd3e d0bd 620d c3bd 67a7 1fbe
000000d0: 2a20 15be 8573 1bbe 9c65 c1bd e88b 88bd
000000e0: 7775 e7bd 5dbd e5bd e8f4 34be fbbc 3cbd
000000f0: 4dde d4bd 1c5d 0fbe e1a1 a0bd 5370 08bd
00000100: 7347 8abd 5d7e 50bd 9edb a4bd b2b6 00be
00000110: 5f1e eebd 0af3 eabd 4097 ebbd c81d 24be
00000120: 9f7c cabd 011a debd aed9 b1bd 5fea ffbd
00000130: f17e 09be 4e99 eabd d8ce 10be ad64 00be
00000140: 2871 abbd 4bbf 04be fd4d d7bc aad7 21be
00000150: efa0 a5bd 8acb 8ebd 549d 02bd 45b4 99bd
00000160: d6b9 80bc 5853 28be 630f 15be a1d0 15be
00000170: e803 5e3a ccef cabd eca6 41bd 5689 eebd
00000180: d59f b6bc 1031 60bd e672 9abd e5bc a9bc
00000190: 30ea a5bd 5e65 e4bd fe23 14be daea 17be
000001a0: 6673 08bd 3cf9 efbc d82b dfbd 2ee9 04be
000001b0: 9092 1b37 99c5 38bd 9409 39be ae72 00be
000001c0: 0849 6cbd 278e adbc df30 0bbb 7879 26be
000001d0: 6f8a bdbc 5a25 8fbd 01dd e9bd 0218 46bd
000001e0: e6a3 5dbd 195d 0cbe 7601 f7bd a4ae 9cbc
000001f0: 221d b7bd ca2d fabd 3e2f b1bd 0cdf e2bc
00000200: 8275 2c3c 7358 7bbd c77a 1b3d da8b 32bd
00000210: 5b45 9e3d a7a2 f13c 6217 1c3d cd78 9c3d
00000220: 61e1 84bc f7d6 d63c 7e0c 103d 9a4a 2fbd
00000230: 6c6f 143d df58 283d 72fd 713d 3d35 a73d
00000240: 6f0e da3d bd16 a43d 7ca2 783d 36ce 423c
00000250: ec04 68bd 6cdb 61bd c59e bb3d 8f19 a63c
00000260: 4882 8a3d d50c bc3d 860d 16bd 0a5a 43bc
00000270: aafd 223d d5d2 dc3c 83a5 06bd b0d8 823d
00000280: e10e d2bc 026f f3bb 738b 0cbd c6a8 683d
00000290: c684 043d 12f2 b9bc cc4f 513c d6d4 893d
000002a0: 458a b63d a569 febb 2a7d 193d bfb1 e33d
000002b0: 24c0 243d 3134 dbba fe1f 913c 3d66 a03d
000002c0: 53e9 4d3d 2165 59bd 0b5e b13d 2a71 a83d
000002d0: a71c ebbc 0f3e a93d 344d 82bd 624a 403c
000002e0: d1fd 86ba b674 373d aefa c73d c984 a03d
000002f0: 29f6 b73d d3ea 413d dc62 ac3c 56a7 b53c
00000300: a56f 2dbc db0f 81bd a56e 5e3b b90b f4bc
00000310: ce30 c33b ac6d 9bbc 816a 90bc e73e e83c
00000320: fe8b 83bd 7b0a 053e 6177 bc3d 02cc e63c
00000330: 99a8 d53c ef1d 933d 51f7 8bbc efa1 9abd
00000340: fcb4 7f3d 69e5 a43d d63a b73d 3718 e23c
00000350: 9735 14bc 5c57 e33d d302 903d 28b4 47bd
00000360: c3b7 d33d 8191 6d3b 498d ebbb b4d6 e93d
00000370: bd18 933b 6b3b 113d 3502 0cbd 8f8c 283d
00000380: 0c8d dc3c 7c77 a23a 3780 d13d abcf 833b
00000390: fa4e 503c 827a 7a3d 19a8 ae3d 1e34 a73c
000003a0: 1e92 9f3d d90f dd3d 5466 7a3a db70 a23d
000003b0: 1749 da3c 914f aa3d 7489 83bc f396 bcbc
000003c0: e591 ac3d 22f3 25bc ee56 aa3d 130b 863c
000003d0: 67d4 703d 625d 5a3d 7779 dabb 59e0 bd3d
000003e0: e074 ec3b 9ad9 b73d aafe 103d 2db8 4b3d
000003f0: 240e 11bc 1ce0 683d e06e e33d 1e79 babd
-0.001852723 -0.11332128 -0.15754458 -0.057625856 -0.07509611 -0.073975794 -0.03568533 -0.17455041
-0.007958363 -0.079043284 0.00027698735 -0.008023886 -0.1323907 -0.14933877 -0.070191056 -0.042269606
-0.007238717 -0.007468481 -0.10537116 -0.10449154 -0.0801739 -0.024858491 -0.10747326 -0.12712738
-0.15876365 -0.16777132 -0.0125579955 -0.08086328 -0.053512517 -0.08475909 -0.1454943 -0.06604732
-0.030623714 -0.1003506 -0.005358216 -0.05296584 -0.15318583 -0.098989084 0.011298258 -0.04353693
-0.13586518 -0.12187892 -0.09300284 -0.09586351 -0.09459384 -0.13181879 -0.01617439 -0.10111256
-0.08416112 -0.101682164 -0.09524037 -0.15591203 -0.14563051 -0.15180786 -0.094432086 -0.0666731
-0.113017015 -0.11217759 -0.1767155 -0.046078663 -0.10393963 -0.14000362 -0.07843376 -0.033310246
-0.06751909 -0.05090176 -0.08049701 -0.12569693 -0.116268866 -0.11472137 -0.11503458 -0.16026986
-0.09887051 -0.108448036 -0.08684097 -0.124958746 -0.1342733 -0.11455022 -0.14141405 -0.12538405
-0.08371192 -0.12963597 -0.026282305 -0.15804926 -0.08087336 -0.06972416 -0.03188832 -0.07505087
-0.015713613 -0.16438043 -0.14556651 -0.14630367 0.000846921 -0.09909019 -0.04727833 -0.116472885
-0.02229301 -0.05473429 -0.075414464 -0.020719955 -0.08101308 -0.11152147 -0.14466855 -0.14835683
-0.033313178 -0.029293649 -0.108970344 -0.12979576 9.272844e-06 -0.04511032 -0.1807006 -0.12543747
-0.057686836 -0.021185948 -0.0021238846 -0.16257274 -0.0231373 -0.06989546 -0.11419106 -0.04836274
-0.054111384 -0.13707389 -0.120608255 -0.019126244 -0.089411035 -0.12215765 -0.08651589 -0.027694248
0.010526063 -0.06136365 0.037958886 -0.043590404 0.07728072 0.029496504 0.038108237 0.076402284
-0.01622075 0.02622555 0.035168163 -0.042795755 0.036239073 0.04110038 0.059079595 0.08164451
0.10647284 0.080121495 0.060701832 0.011889985 -0.05664532 -0.055140898 0.09161142 0.02027586
0.067631304 0.09182135 -0.03663399 -0.011923322 0.039792694 0.026956001 -0.032872688 0.06388986
-0.02564186 -0.0074290046 -0.034312677 0.05680158 0.032353185 -0.022698436 0.012775373 0.06730048
0.089130916 -0.0077640587 0.03747288 0.11117887 0.040222302 -0.0016723928 0.01771545 0.078320004
0.050271343 -0.05307496 0.086605154 0.08224709 -0.028700186 0.0826379 -0.063623816 0.011736484
-0.0010299032 0.04478904 0.0976461 0.07837827 0.08982498 0.047343086 0.021043234 0.022174519
-0.0105857 -0.06301852 0.003394046 -0.029790746 0.0059567457 -0.018973194 -0.01762891 0.028350307
-0.06423186 0.12992279 0.09202457 0.02817345 0.02608137 0.07183444 -0.017085703 -0.07550418
0.06242846 0.08051569 0.08946769 0.027599437 -0.00904598 0.11100647 0.07031789 -0.048755795
0.10337784 0.0036250057 -0.0071884734 0.114179045 0.004489033 0.035457056 -0.034181792 0.041149672
0.026922725 0.0012395228 0.10229533 0.0040225587 0.012714142 0.06115199 0.08528156 0.020410594
0.077915415 0.10794038 0.0009551991 0.07931682 0.02664618 0.08315957 -0.016056754 -0.023021197
0.08426265 -0.010128768 0.08317362 0.016362702 0.058796313 0.053311713 -0.006667312 0.092713065
0.007216081 0.08977051 0.035399117 0.04973619 -0.008853469 0.056854352 0.11105132 -0.091051325
