src/tricks_gru.onnx (onnx, 360261 bytes, 6 tensors)

embed.weight f4 [78, 64]
0	0x3ef74cba	0.48300725
1	0x403f3a2f	2.9879262
2	0x3f2dc8ba	0.6788441
3	0x3f40b3ef	0.75274557
4	0xbddaeb9d	-0.10689471
5	0x3f2307d7	0.6368384
6	0x3df6ecfc	0.1205692
7	0x3f6e7367	0.9314484
8	0x3fa7f690	1.312212
9	0x3f536724	0.82579255
10	0x3d002d75	0.03129335
11	0x3f463e7a	0.7743908
12	0xbf907e77	-1.1288594
13	0x4033c8c6	2.8091292
14	0x3ee3f314	0.4452139
15	0xbe810d81	-0.25205615
16	0xbe1a5e70	-0.15075088
17	0xbe7ec3a7	-0.24879323
18	0xbea044a9	-0.31302384
19	0xbf7bc2c3	-0.9834406
20	0xbf4a6b5a	-0.79070055
21	0xc0276191	-2.61533
22	0xbe3f5912	-0.18686321
23	0xbf0d1436	-0.55108964
24	0x3f7cb0ff	0.98707575
25	0x3dc7f499	0.0976345
26	0xbf4e6089	-0.8061605
27	0xbf48ce28	-0.7843957
28	0x3fef9d28	1.8719835
29	0x3d918864	0.071060926
30	0x3f029dcb	0.5102202
31	0x3fbaf51c	1.4606051
32	0x3e89ca64	0.26912224
33	0xbf01c61d	-0.5069292
34	0xbe5891a0	-0.21149302
35	0xbe395d33	-0.18101959
36	0xbf91ff05	-1.1405951
37	0x3f8249d6	1.0178783
38	0x3efa2950	0.48859644
39	0xbf315f79	-0.69286305
40	0xbf3d2143	-0.7387888
41	0x3e537805	0.20651253
42	0xbde0177d	-0.1094198
43	0x3faa352c	1.3297477
44	0x3eaf87b5	0.34283224
45	0x3fc38dce	1.527765
46	0x3f7e1f6e	0.9926671
47	0xbfded2ce	-1.7408082
48	0x3f7b2aeb	0.9811236
49	0xbfaa6191	-1.3311025
50	0xbfbe7b3a	-1.4881356
51	0x3e71a320	0.23597383
52	0xbde7a48d	-0.113106824
53	0x3e664c79	0.2249011
54	0x3e587f32	0.21142271
55	0xbf3c65a6	-0.73592603
56	0x401e644b	2.4748714
57	0xbfd4ce84	-1.6625524
58	0x400601b7	2.0938547
59	0xbf9abae9	-1.208829
60	0x3fdffe98	1.7499571
61	0xbf554a87	-0.83316845
62	0x3ec01f67	0.37523958
63	0x3fd60e63	1.672314
64	0x3f556256	0.83353174
65	0xbfbdd7b5	-1.4831454
66	0x3f24cd60	0.6437588
67	0xc051c7f7	-3.27783
68	0xbf4d3da1	-0.80172163
69	0x400b501e	2.176765
70	0xbf83f680	-1.0309601
71	0x3f24da20	0.6439533
72	0x3f357d65	0.7089446
73	0xbfd575db	-1.6676592
74	0xbfdf6658	-1.7453108
75	0x3fd230da	1.6421158
76	0xbe5b64a7	-0.21425115
77	0xbf4e7eb5	-0.8066209
78	0x3cf62173	0.030045247
79	0xbe8c7e92	-0.27440315
80	0xbf0eef04	-0.5583346
81	0x3f524c47	0.8214764
82	0xbfac256b	-1.3448919
83	0xbf04d4a9	-0.51886994
84	0xbfea6b7a	-1.8314049
85	0xc0291a6e	-2.6422381
86	0x3f54455c	0.82918334
87	0x3fa2124b	1.2661833
88	0xbfa30a29	-1.2737476
89	0xbf4cc86d	-0.79993325
90	0xbdf57176	-0.119845316
91	0x3ed93fd5	0.42431512
92	0xbf82433d	-1.017677
93	0xbf6285de	-0.88485515
94	0xbffd9b87	-1.9813088
95	0x3f270cac	0.6525371
96	0xbf8b93a0	-1.0904427
97	0xbf1fa13d	-0.62355405
98	0x3f291c3b	0.660587
99	0x3fe5d144	1.7954488
100	0xbfcee31d	-1.616306
101	0xbf7b19e8	-0.98086405
102	0xbfbfb878	-1.497817
103	0xbee11f7d	-0.43969336
104	0xbf43a70e	-0.7642678
105	0x3e2e3273	0.17011432
106	0xbd1c8717	-0.03821477
107	0xbf25190a	-0.6449133
108	0x3ffc30ba	1.970237
109	0xbf1d1e03	-0.6137392
110	0xbfbabee4	-1.4589505
111	0xbe8d4056	-0.27588147
112	0x3e950fdc	0.29113662
113	0xbec78fa5	-0.3897678
114	0xbf94311a	-1.1577485
115	0xbf2bd117	-0.6711592
116	0xbb858583	-0.0040747537
117	0xbeaed116	-0.34143895
118	0x3fd3e0cf	1.6552981
119	0x3e9d571f	0.3073053
120	0xbfc1e051	-1.5146581
121	0x3fec8a8d	1.8479782
122	0xbe9fd3d1	-0.3121629
123	0xbfe72cda	-1.8060563
124	0xbe96e8c6	-0.29474467
125	0xbe46c031	-0.19409253
126	0xc000ec88	-2.0144367
127	0xbed38106	-0.41309375
128	0x3e4b8abc	0.19877142
129	0xbef466c8	-0.47734666
130	0xbecede61	-0.40404037
131	0xbf838fa6	-1.0278213
132	0xc026e30a	-2.6076074
133	0xbec4b76c	-0.3842119
134	0x3dedb411	0.116066106
135	0xbf30c4ec	-0.6905048
136	0xbfd23331	-1.6421872
137	0x3ea31d4f	0.31858298
138	0x3ed5564e	0.41667408
139	0x3d912632	0.07087363
140	0x3f6e0256	0.92972314
141	0x3f544aa3	0.82926387
142	0x3fc86d08	1.5658274
143	0xbee33181	-0.44373706
144	0xbf3829e9	-0.7193895
145	0x3f80e1bb	1.0068887
146	0xbf164b8e	-0.5870904
147	0xbfbb6f67	-1.4643372
148	0xbfa0d3ba	-1.2564614
149	0xbef6f940	-0.48237038
150	0x3f7bac4c	0.9830978
151	0xbbe733df	-0.007055744
152	0x3e891e1b	0.2678078
153	0xbf0624a7	-0.5239968
154	0x3e81d659	0.25358847
155	0xbec8852f	-0.3916411
156	0xbedfeae9	-0.4373391
157	0x3f0a9e88	0.5414815
158	0x3f507a44	0.8143656
159	0x3fbf6073	1.4951309
160	0xbfa83c02	-1.3143313
161	0x3fe949a1	1.8225595
162	0xbff63fb1	-1.9238187
163	0xbe775ae7	-0.2415577
164	0xbf067822	-0.5252706
165	0xbf0f8624	-0.5606406
166	0xbfda408a	-1.7050946
167	0x3f5ee9da	0.8707558
168	0xbf55c929	-0.8351007
169	0x3dce31ff	0.1006813
170	0xbf9e6ced	-1.2376992
171	0x3f3344e8	0.7002702
172	0xbef48ec7	-0.4776518
173	0x3fde6c61	1.7376825
174	0xbf822a2e	-1.0169122
175	0xbf36ee81	-0.7145768
176	0x3f4170a5	0.75562507
177	0x3dd434fd	0.10361669
178	0xbf3185dd	-0.69344884
179	0x4005e59f	2.09214
180	0x3f259b8e	0.6469048
181	0x3f8fe007	1.1240243
182	0x3ffe51fc	1.986877
183	0x3f286dd0	0.6579256
184	0x3db1de29	0.08684952
185	0x3faa2dfc	1.3295283
186	0x3e399d95	0.18126519
187	0x40202a91	2.502598
188	0x3f7435f7	0.95394844
189	0x3e38b4ad	0.18037672
190	0x3f1d17bb	0.61364335
191	0x3faf4fd4	1.3696237
192	0x3f33718b	0.7009513
193	0x3f8dcf3a	1.1078866
194	0x3f87ef80	1.0619965
195	0x3f93e4d6	1.155421
196	0x3f85f414	1.0465112
197	0x3f39cf3f	0.7258186
198	0xbf9ff284	-1.2495885
199	0x3d863cdf	0.06554579
200	0xbe7b8ff2	-0.2456663
201	0x3fbafe23	1.4608806
202	0xbf10f61a	-0.5662552
203	0x3f4ad58f	0.79232115
204	0xbf04a4f9	-0.5181423
205	0x3f9d5b57	1.22935
206	0x3f22f19f	0.63649935
207	0xbff4887f	-1.9104155
208	0xc020019c	-2.5000982
209	0xbf99778c	-1.1989608
210	0xbef5c032	-0.47998196
211	0x3f3cb71a	0.7371689
212	0xbf1f6778	-0.62267256
213	0x3f6f4501	0.93464667
214	0xbfddafe5	-1.7319304
215	0xc0186806	-2.381349
216	0xbf42e160	-0.76125145
217	0x3f351a08	0.70742846
218	0x3f784923	0.969866
219	0x3fab8c1f	1.3402137
220	0xbeefab0f	-0.46810195
221	0xbfaff76d	-1.3747383
222	0xbe9aa34c	-0.3020271
223	0x3f6453c1	0.891903
224	0x3fa3450b	1.2755445
225	0xbde354d3	-0.11100163
226	0x3ff933a6	1.9468887
227	0xbfadecda	-1.3587906
228	0xbe63d91f	-0.22250794
229	0xbfd021b0	-1.6260281
230	0x40314f56	2.7704673
231	0xbe9e92a6	-0.3097126
232	0xbc4d64c3	-0.0125362305
233	0xbfa23734	-1.2673097
234	0x3f334f4d	0.7004288
235	0xbe3e2777	-0.18569742
236	0x3f91243b	1.1339182
237	0x3f9d692b	1.229772
238	0xbe9a9bd0	-0.30197
239	0x3fd643d1	1.6739446
240	0xbe4d2ff0	-0.20037818
241	0x3d999b73	0.07500353
242	0x3fe868ec	1.815702
243	0xbf0f50ba	-0.55982554
244	0xbf1a024e	-0.60159767
245	0xbff5195c	-1.9148364
246	0xbf3fdc43	-0.7494547
247	0x3e2337e5	0.15939291
248	0xbf041e8e	-0.5160912
249	0x3fe05f93	1.7529167
250	0x3e1e8cb5	0.15483363
251	0x3e29659e	0.1654267
252	0x3f2db3b3	0.67852324
253	0x3f22f0a2	0.63648427
254	0x3f5fbe49	0.8739973
255	0xbfe20f45	-1.766091

fc.weight f4 [78, 128]
0	0xba80bce2	-0.0009821916
1	0xbd57944d	-0.052631665
2	0x3e245a6d	0.1605012
3	0xbdccfe6c	-0.100094646
4	0xbdb16b2d	-0.0866302
5	0xbcd0b672	-0.025477622
6	0x3e3fa3a0	0.18714762
7	0xbcaf2098	-0.021377847
8	0x3cd76bf0	0.026296586
9	0xbd94be08	-0.07262808
10	0xbcaf1088	-0.021370187
11	0x3dd8cd8a	0.105860785
12	0xbe54a2fd	-0.207653
13	0xbdda8f25	-0.10671834
14	0xbddd0801	-0.10792542
15	0x3d5d30d1	0.054001633
16	0xbe28480d	-0.16433735
17	0x3e186b71	0.14884736
18	0xbe32ee9d	-0.17473836
19	0xbdbb87e7	-0.09156781
20	0xbd71a7b7	-0.058997836
21	0xbd0ec21b	-0.034853082
22	0x3dcd6296	0.100285694
23	0x39fbb5e9	0.00048009984
24	0xbce1f33f	-0.02758181
25	0x3d9ecd10	0.07753956
26	0xbe17f303	-0.14838795
27	0x3c830409	0.015993135
28	0xbd848bc3	-0.0647197
29	0x3e2eb1d0	0.17060018
30	0xbe32928d	-0.17438717
31	0x3d549618	0.051900953
32	0xbe8508e9	-0.2598336
33	0xbde0ce34	-0.1097683
34	0xbe19f5fa	-0.15035239
35	0xbe3b19df	-0.18271588
36	0x3dbc97fd	0.09208677
37	0x3e31463a	0.17311946
38	0x3d240b15	0.04004963
39	0x3bad974a	0.005297576
40	0xbd384c37	-0.04499456
41	0x3e16b68f	0.14718078
42	0xbde6ca3f	-0.11269044
43	0xbd9957b5	-0.07487432
44	0xbe30f876	-0.1728228
45	0x3d0cf51c	0.034413442
46	0xbd533981	-0.051568512
47	0x3e92ce7a	0.28673154
48	0x3e1c8a88	0.1528722
49	0xbdd5eac2	-0.10445167
50	0xbd469520	-0.04848206
51	0x3d4bef96	0.049789034
52	0x3e1729c1	0.14762022
53	0xbdeabd2b	-0.11461862
54	0xbde68d9d	-0.11257479
55	0xbcd1a6fc	-0.02559232
56	0x3e0ea1d9	0.13928927
57	0x3c898c80	0.016790628
58	0x3e4aa0e2	0.19787934
59	0xbe059af7	-0.13047396
60	0xbd3f0fe1	-0.046646003
61	0x3c5d0d49	0.013491937
62	0xbd0c4ed7	-0.034254875
63	0xbde9482b	-0.11390718
64	0xbdab04f3	-0.08350553
65	0x3ce7c24e	0.028290894
66	0x3e3843f9	0.1799468
67	0x3e25fdc4	0.16210085
68	0x3def888e	0.116959676
69	0x3d7f84d9	0.062382553
70	0x3de9325f	0.11386561
71	0xbd20b360	-0.039233565
72	0xbe8edd4a	-0.27903205
73	0xbe1826ce	-0.14858553
74	0xbd8ed2c2	-0.069737926
75	0xbdd3ef1d	-0.103483416
76	0xbe129577	-0.14314829
77	0x3dc31b87	0.09526735
78	0x3dc0bf49	0.09411485
79	0x3d6d3424	0.057911053
80	0xbe1bbb81	-0.15208246
81	0xbde2c5b2	-0.11072864
82	0xbe9653d5	-0.29360834
83	0x3e1f4790	0.15554643
84	0xbd357ff1	-0.044311468
85	0x3e12026f	0.14258741
86	0x3bf3271c	0.0074204337
87	0xbe15aa22	-0.14615682
88	0xbdf4e620	-0.11957955
89	0x3d41d3c5	0.0473211
90	0x3dac7497	0.08420675
91	0xbe30f1fd	-0.17279811
92	0x3d043c25	0.03228392
93	0x3cb922ff	0.022599695
94	0xbdc0ac1f	-0.094078295
95	0xbe812501	-0.25223544
96	0xbd8042f2	-0.06262769
97	0xbe11fb4d	-0.1425602
98	0xbd8150bb	-0.06314226
99	0x3d2604b0	0.040531814
100	0x3b1130e1	0.0022154378
101	0x3dedf83b	0.11619612
102	0x3d602c1a	0.05472956
103	0x3d503b85	0.050838012
104	0x3d963b9c	0.07335588
105	0x3d81ed0b	0.063440405
106	0xbd698f8c	-0.057021663
107	0xbd9b3522	-0.07578494
108	0x3d96fdd2	0.07372631
109	0x3dd5d2e2	0.10440613
110	0x3e3ef66e	0.18648693
111	0x3dd51504	0.10404399
112	0xbd75a1ea	-0.059968866
113	0x3c22d406	0.009938246
114	0xbda354bd	-0.07975147
115	0x3ef9ffd3	0.4882799
116	0xbd0ad087	-0.033890273
117	0x3ead2e8b	0.33824572
118	0xbe32039f	-0.17384194
119	0xbdf9793b	-0.12181326
120	0xbe01ea50	-0.1268704
121	0x3d9718a7	0.07377749
122	0x3e5f976f	0.21835111
123	0x3df19d17	0.11797541
124	0xbe7f9435	-0.2495888
125	0xbb7b00a9	-0.0038299954
126	0xbd09f1d3	-0.033677887
127	0xbdc6f0c6	-0.09713893
128	0xbc9280cb	-0.017883679
129	0xbe42e6fb	-0.19033425
130	0x3dacbdac	0.084346145
131	0x3e1257f7	0.14291368
132	0xbce8f522	-0.028437201
133	0x3e51d3ab	0.20490901
134	0xbe2c3be4	-0.16819721
135	0xbbf45146	-0.0074559776
136	0xbe3fd39b	-0.18733065
137	0xbe275bcd	-0.16343613
138	0xbd001d6c	-0.03127806
139	0x3e3f8502	0.18703082
140	0x3e3079ce	0.17233965
141	0xbc94ee27	-0.018179966
142	0xbdebb874	-0.11509791
143	0x3e410399	0.18849029
144	0xbc8fa867	-0.017536355
145	0xbc67894b	-0.014131854
146	0x3d44ed1f	0.0480777
147	0xbd952b23	-0.07283618
148	0xbdcea456	-0.10089938
149	0x3bae579d	0.005320503
150	0xbd5b85f0	-0.05359453
151	0x3c897cd0	0.016783148
152	0x3deebd2e	0.11657177
153	0xbe3e0384	-0.18556029
154	0x3d05016a	0.03247205
155	0xbdb07925	-0.086168565
156	0xbdba9f64	-0.091124326
157	0x3da126cb	0.07868727
158	0x3eb4cb6d	0.35311452
159	0xbe2132d4	-0.15742046
160	0xbded03b8	-0.11572975
161	0x3e3d1414	0.1846469
162	0xbda954af	-0.08268105
163	0xbd82adbf	-0.06380796
164	0xbc06055d	-0.00817999
165	0x3db0b2fc	0.086278886
166	0xbc279579	-0.010228508
167	0x3d0e93be	0.034808867
168	0x3d50ba9f	0.050959226
169	0xbe02cc52	-0.12773255
170	0xbe1b8527	-0.15187512
171	0x3e783894	0.24240333
172	0x3e8751d6	0.26429623
173	0xbdfcbf27	-0.12341147
174	0xbe06fe6e	-0.13182995
175	0x3b4fa98b	0.003168675
176	0x3e829330	0.2550292
177	0x3e011714	0.1260646
178	0xbd8bc7b1	-0.068251975
179	0x3df0900b	0.11746224
180	0x3db168d0	0.086625695
181	0xbe409994	-0.18808585
182	0x3e27c657	0.16384254
183	0xbe77122a	-0.24128023
184	0x3dc90d36	0.09816973
185	0xbd68c8f1	-0.056832258
186	0xbe45cbb7	-0.19315992
187	0x3c10c1bd	0.008835253
188	0xbd7b8015	-0.061401445
189	0xbdcc1531	-0.099649794
190	0x3e82a1ae	0.25513977
191	0x3d51806d	0.051147867
192	0xbd3b02ab	-0.04565684
193	0x3d810133	0.06299057
194	0xbddf919b	-0.10916444
195	0x3d695ae1	0.056971435
196	0x3d564a3b	0.052316885
197	0x3e24b4a7	0.16084538
198	0xbea82292	-0.32838875
199	0x3dcd5dc3	0.10027649
200	0xbdf2c1fc	-0.11853406
201	0xbe2096ca	-0.15682521
202	0xbe36d70b	-0.1785547
203	0xbd9223a5	-0.07135705
204	0xbe2fd7e9	-0.17172207
205	0xbe62b06a	-0.22137609
206	0x3e3c9189	0.18414892
207	0xbd81fdfb	-0.06347271
208	0x3e818f37	0.25304577
209	0x3e901dbe	0.2814769
210	0x3e411652	0.18856171
211	0x3dd3befb	0.10339161
212	0x3db8656a	0.09003718
213	0xbe3cf6cd	-0.18453522
214	0xbdb85b29	-0.090017624
215	0xbccad6fd	-0.024760718
216	0xbe2bbc99	-0.16771163
217	0xbc991fb9	-0.018691884
218	0x3dad8249	0.084721155
219	0xbd09425e	-0.03351056
220	0xbdabf93d	-0.08397148
221	0xbd70ce72	-0.05879063
222	0xbd721890	-0.059105456
223	0xbcfc996a	-0.030834872
224	0xbdf511ad	-0.11966262
225	0xbe340f36	-0.17583928
226	0x3e27eaf1	0.16398217
227	0xbc514531	-0.012772844
228	0xbd67c232	-0.056581683
229	0xbe740884	-0.23831373
230	0xbd62e7f4	-0.05539699
231	0x3d505e5c	0.050871238
232	0x3e383a78	0.17991054
233	0xbdf7a329	-0.12091667
234	0x3e447f8e	0.19189283
235	0xbea87fa2	-0.32909876
236	0xbe89d828	-0.26922727
237	0xbc12c066	-0.008957004
238	0x3ba984d2	0.005173304
239	0xbe2d56fe	-0.16927716
240	0x3d965eea	0.07342322
241	0xbdcebd42	-0.10094692
242	0x3d920ec6	0.07131724
243	0xbc5794f3	-0.013158071
244	0x3d016cc3	0.031597864
245	0xbdf6f209	-0.12057883
246	0x3e25b7c2	0.1618338
247	0xbe48ea31	-0.19620587
248	0xbd639c94	-0.055569246
249	0x3d425906	0.04744818
250	0xbe337c47	-0.17527877
251	0x3e1d16f4	0.15340787
252	0x3ea09b7e	0.3136863
253	0x3c989380	0.018625021
254	0xbddd395a	-0.108019546
255	0xbe075d6a	-0.13219228

fc.bias f4 [78]
0	0x3d94ca7a	0.07265182
1	0xbcf2b56f	-0.02962753
2	0xbcc185b3	-0.023623323
3	0x3d31ab6a	0.043376364
4	0x3e1c3e22	0.15258077
5	0x3e06ed6e	0.1317651
6	0xbdc1ceb9	-0.09463257
7	0xbc013dde	-0.007888285
8	0xbcf8170f	-0.030284433
9	0xbe04fe35	-0.12987597
10	0xbe0d180c	-0.13778704
11	0x3d6f916f	0.058488306
12	0xbd845103	-0.06460764
13	0xbdafa78b	-0.08576878
14	0xbc76ed89	-0.015071281
15	0xbd8a79ee	-0.067615375
16	0x3cc072cc	0.02349224
17	0x3dee0e6e	0.11623846
18	0xbd1cf22b	-0.038316887
19	0xbd5105c1	-0.051030878
20	0xbdefaec1	-0.117032535
21	0xbd10cd28	-0.035351902
22	0x3ca92dca	0.020651717
23	0xbdf9922e	-0.12186085
24	0xbdbfe240	-0.09369326
25	0xbe0b5564	-0.13606793
26	0xbd25ce95	-0.040480215
27	0x3bcdaea7	0.0062769237
28	0x396bca80	0.00022486784
29	0xbd9ed797	-0.07755964
30	0x3c8e1db8	0.017348155
31	0xbe03da4a	-0.1287624
32	0xbd8a7276	-0.06760113
33	0xbd523687	-0.051321533
34	0xbc5e32eb	-0.0135619445
35	0x3c9a42a3	0.018830603
36	0xbdb332f7	-0.08749955
37	0xbdbd105f	-0.09231638
38	0xbda9b640	-0.082867146
39	0xbbf1b7a1	-0.0073766266
40	0xbe063738	-0.13107002
41	0xbd676150	-0.05648929
42	0xbdada655	-0.08478991
43	0xbd7433b7	-0.05961963
44	0x3c4844a4	0.012223396
45	0xbdb67af3	-0.089101695
46	0xbd97dc68	-0.07415086
47	0x3dd0f1a8	0.10202342
48	0x3ca8ffbe	0.02062976
49	0xbdedc858	-0.11610478
50	0xbd8c7f9b	-0.06860276
51	0xbc114621	-0.008866818
52	0xbd28d780	-0.04122114
53	0xbcbfb236	-0.023400407
54	0xbdabf48e	-0.083962545
55	0x3c95a3fa	0.018266667
56	0xbc7d562e	-0.015462441
57	0x3dad6cd4	0.08468023
58	0x3d864ad7	0.06557243
59	0xbcd3e45d	-0.025865728
60	0xbbbd1602	-0.005770446
61	0x3d369d06	0.044583343
62	0x3d2e4816	0.042549215
63	0x3c2282ff	0.009918927
64	0x3d3e2b28	0.046427876
65	0xbc9155dd	-0.017741138
66	0xbda2cce0	-0.07949233
67	0xbca920d4	-0.020645536
68	0x3ce31199	0.027718352
69	0x3bd8e12e	0.0066186404
70	0x3d20f68c	0.039297625
71	0x3ded133d	0.11575935
72	0x3c352003	0.0110549955
73	0x3d9ba8a6	0.076005265
74	0x3d64f74d	0.055899907
75	0xbe085ec5	-0.13317402
76	0x3d08c3c3	0.033389818
77	0x3c29b123	0.010357174

onnx::GRU_110 f4 [1, 384, 64]
0	0x3d5e2f9b	0.05424462
1	0x3e0c2789	0.13686956
2	0x3da78130	0.081789374
3	0xbdfcae96	-0.12337987
4	0xbe68a08d	-0.22717495
5	0xbe741085	-0.23834427
6	0x3e39e5ac	0.18154019
7	0x3d1fd556	0.039021812
8	0x3e0a655d	0.1351523
9	0x3dca63fd	0.098823525
10	0x3db3b7d1	0.087752946
11	0xbe013998	-0.12619627
12	0x3e1cd4e3	0.15315585
13	0xbe1220cf	-0.14270328
14	0xbcc78473	-0.024355149
15	0xbde854a5	-0.1134427
16	0x3e752893	0.23941259
17	0x3d8ed3c7	0.06973987
18	0x3cddbdce	0.027068045
19	0xbdc87be9	-0.09789259
20	0xbda27ecd	-0.079343416
21	0x3dc90395	0.09815136
22	0x3c478c6e	0.012179477
23	0x3d389c86	0.045071147
24	0x3e319b9e	0.1734452
25	0xbcf91078	-0.03040336
26	0x3dc94ed5	0.09829489
27	0x3b08f0b2	0.0020895419
28	0xbe4c543b	-0.19954006
29	0x3dccfcd4	0.10009161
30	0x3e00eae6	0.12589607
31	0xbd2365b3	-0.03989191
32	0xbd0dcfc5	-0.034621973
33	0xbd0aa59d	-0.033849347
34	0xbe2ed39a	-0.17072907
35	0xbcbc3d19	-0.022978352
36	0xbddd041b	-0.10791799
37	0xbe2164aa	-0.15761057
38	0x3e63f213	0.22260313
39	0xbdb133ff	-0.086524956
40	0xbe756ab0	-0.2396648
41	0xbdf660df	-0.120301954
42	0xbdd8fc77	-0.10595029
43	0xbcedf5f3	-0.029047942
44	0xbde230e3	-0.11044481
45	0x3de0b202	0.10971452
46	0xbdf8a44f	-0.121407144
47	0x3e39fffb	0.18164055
48	0xbe050eb1	-0.12993886
49	0xbd0cec23	-0.034404885
50	0x3e2903d3	0.16505365
51	0xbcd52c39	-0.026022064
52	0x3def24d4	0.11676946
53	0x3d1c4798	0.038154215
54	0xbd70c3d0	-0.05878049
55	0x3e30ea14	0.17276794
56	0x3dc212e0	0.09476256
57	0xbce9ae5b	-0.028525522
58	0xbdd8c61e	-0.10584663
59	0xbc2b12b9	-0.010441476
60	0x3b8d01b1	0.00430318
61	0x3d187ef5	0.03723045
62	0xbc9bbc39	-0.01901065
63	0x3e3d6fc3	0.18499665
64	0xbb1e4b58	-0.0024153795
65	0x3e206edc	0.1566729
66	0xbdbe4e06	-0.092922255
67	0xbe0ad770	-0.13558745
68	0xbe29b585	-0.1657315
69	0x3d549821	0.051902894
70	0xbd9d9b9e	-0.07695697
71	0x3b850ab1	0.0040601124
72	0x3e236c2c	0.15959233
73	0x3e13dc3f	0.14439486
74	0xbda04e58	-0.07827443
75	0xbdd897cc	-0.10575828
76	0x3e4a0c68	0.19731295
77	0x3dc83694	0.09776035
78	0xbd7027cd	-0.058631707
79	0xbc1fdb15	-0.009756823
80	0x3e48fe71	0.19628312
81	0xbd8c63a2	-0.06854941
82	0x3e848174	0.25880015
83	0x3c076e04	0.008265976
84	0x3e477fcb	0.19482343
85	0x3df8be26	0.12145643
86	0xbdb23b09	-0.08702666
87	0x3d17cdd7	0.03706154
88	0xbdd06f79	-0.10177512
89	0xbdb801a4	-0.08984688
90	0x3e0f2a00	0.13980865
91	0x3b1be12d	0.0023785338
92	0xbe675c83	-0.22593884
93	0xbe262493	-0.1622489
94	0x3e872c5a	0.26401025
95	0xbe09a4e7	-0.13441812
96	0x3dc0b872	0.0941018
97	0xbe22a0c3	-0.15881638
98	0xbb05ee35	-0.0020436172
99	0x3e47b1de	0.19501445
100	0xbc6fb2a1	-0.014629991
101	0x3e20ab22	0.15690282
102	0x3d85a545	0.06525663
103	0x3cd7d375	0.026345948
104	0x3e90e438	0.28299117
105	0xbaf019c9	-0.0018318231
106	0x3b8f739c	0.0043777954
107	0xbd5f798b	-0.05455927
108	0x3cc45f83	0.023971325
109	0x3d33e54e	0.043919854
110	0x3e150c8d	0.14555569
111	0x3cef500d	0.029212976
112	0xbd456d22	-0.04819978
113	0xbe1d101d	-0.15338178
114	0x3d68df4d	0.05685358
115	0x3dc237b8	0.09483284
116	0x3e2eb31a	0.1706051
117	0x3ded690b	0.11592301
118	0xbdbf0641	-0.09327365
119	0x3d4abbad	0.049495388
120	0xbe5e655d	-0.21718355
121	0x3dc3ff6d	0.09570203
122	0xbcb38dce	-0.021918204
123	0x3cb9cc97	0.022680564
124	0xbd73142f	-0.05934542
125	0xbb83c9a0	-0.0040218383
126	0x3d27b360	0.04094255
127	0xbc6e13c2	-0.014531078
128	0xbe2b1037	-0.16705404
129	0x3e353c9e	0.17698905
130	0xbc66abcd	-0.014079046
131	0xbb78ccde	-0.0037963907
132	0xbe235bb5	-0.15952952
133	0xbe4319cb	-0.19052808
134	0xbd26a13b	-0.040681105
135	0x3e43e4c2	0.19130233
136	0x3d5c31cd	0.05375843
137	0x3e561b5d	0.20908876
138	0x3e6de475	0.2323168
139	0x3db88017	0.09008806
140	0xbd1fe70a	-0.039038695
141	0x3caf8a3b	0.021428218
142	0x3c10bf0c	0.008834612
143	0x3dbbe0d7	0.09173744
144	0xbe2e546d	-0.17024393
145	0xbe748bea	-0.23881498
146	0x3d1ce563	0.038304698
147	0x3d9ada2f	0.075611465
148	0xbdb1fa7f	-0.086903565
149	0xbe15ece5	-0.1464115
150	0xbe3f3d78	-0.18675792
151	0xbd5fa71e	-0.054602735
152	0xbda67039	-0.081268735
153	0x3e56118e	0.20905134
154	0x3b8857f1	0.004160874
155	0xbe03179f	-0.1280198
156	0xbe06703f	-0.13128756
157	0xbddb0fe6	-0.10696392
158	0xbe68da20	-0.22739458
159	0xbca439be	-0.020047065
160	0xbe3b65b9	-0.18300523
161	0xbc0a4011	-0.008438126
162	0xbd3a186a	-0.04543344
163	0xbdab711d	-0.08371184
164	0x3e6a0ebd	0.22857185
165	0x3dc8f03d	0.09811447
166	0x3e4bb5b3	0.19893532
167	0xbd6c2ff1	-0.057662908
168	0xbbe0cbb6	-0.0068602217
169	0xbe5b0096	-0.21386942
170	0x3d8e0552	0.069346085
171	0xbbc23327	-0.005926508
172	0xbd8d8614	-0.06910339
173	0xbc60d573	-0.013722765
174	0xbe838255	-0.25685373
175	0xbdd6e600	-0.10493088
176	0x3da438ba	0.08018632
177	0x3c614e22	0.0137515385
178	0x3e438164	0.19092327
179	0x3d8f7ec4	0.070066005
180	0xbe88978e	-0.26678127
181	0x3cfc8674	0.030825831
182	0xbdbedc24	-0.09319332
183	0x3dc63b63	0.09679296
184	0x3e535405	0.2063752
185	0x3dd934cb	0.106057726
186	0xbc83ab6b	-0.01607295
187	0x3dc6e817	0.097122364
188	0xbd62b68f	-0.055349883
189	0x3e530525	0.20607431
190	0x3d8e3108	0.06942946
191	0xbe6f4e7b	-0.23369782
192	0xbd1dd6ae	-0.038534813
193	0x3e0ad419	0.13557471
194	0xbddccd22	-0.107813135
195	0xbd7151f0	-0.058916032
196	0xbb67430a	-0.003528776
197	0xbe615f1d	-0.22008939
198	0xbd246e70	-0.040144384
199	0xbe2c604d	-0.16833611
200	0x3d15598c	0.03646235
201	0x3d63556d	0.05550139
202	0x3dd3996f	0.103319995
203	0xbe31d75c	-0.1736731
204	0x3c874b27	0.016515328
205	0xbd94106e	-0.07229696
206	0xbce1e168	-0.027573302
207	0x3d49ff31	0.049315635
208	0xbd968c15	-0.07350937
209	0xbbdb22e8	-0.0066875108
210	0x3e518376	0.20460305
211	0x3e10e1dd	0.1414866
212	0x3d8b48bb	0.068009816
213	0x3d762897	0.060097303
214	0xbdbfc5f1	-0.09363926
215	0x3c27234a	0.010201285
216	0xbd9dfc91	-0.07714189
217	0x3cafc9b2	0.02145848
218	0xbd22f315	-0.039782602
219	0x3e079e54	0.13243991
220	0x3d42d19d	0.047563184
221	0xbdda6a95	-0.1066486
222	0xbd47ff24	-0.048827305
223	0x3da6cbdb	0.08144351
224	0xbe1232cb	-0.14277188
225	0xbd573e15	-0.05254944
226	0xbe576d51	-0.21037795
227	0x3e158c5f	0.14604329
228	0xbbc6530b	-0.00605238
229	0xbd37920f	-0.044817027
230	0x3da23423	0.079201005
231	0xbd4fc7cc	-0.05072765
232	0xbd45d6e2	-0.04830063
233	0xbe37818c	-0.17920512
234	0xbdd1ce86	-0.10244469
235	0xbd89bf5f	-0.06725954
236	0xbc915791	-0.01774195
237	0x3e4151e1	0.1887889
238	0x3d9e103c	0.0771794
239	0xbdd3d85e	-0.10344003
240	0xbdb928de	-0.09040998
241	0xbd86df82	-0.065855995
242	0x3db4923a	0.08816953
243	0x3ca5f12c	0.020256601
244	0xbd0c0385	-0.034183044
245	0xbc7ff077	-0.015621296
246	0x3daad009	0.08340461
247	0x3e26f9f2	0.16306284
248	0xbdc4dd3b	-0.09612509
249	0x3e392870	0.18081832
250	0x3cddd91e	0.027081069
251	0xbdc63d18	-0.096796215
252	0xbd26c9fe	-0.04071998
253	0x3b1ba664	0.00237503
254	0x3dbb77dc	0.09153721
255	0x3eb4b5d6	0.3529498

onnx::GRU_111 f4 [1, 384, 128]
0	0x3e174e5f	0.1477599
1	0x3de16813	0.11006179
2	0xbde44510	-0.11145985
3	0x3d440509	0.047856364
4	0xbe9cad1b	-0.3060082
5	0xbd838d83	-0.064234756
6	0x3e04c22c	0.12964696
7	0xbd35fa84	-0.044428363
8	0xbe361d05	-0.17784508
9	0x3db09568	0.08622247
10	0xbdb882c2	-0.09009315
11	0xbca724df	-0.020403324
12	0xbdf1c309	-0.11804778
13	0xbd3c29cd	-0.0459383
14	0x3dc36987	0.09541612
15	0xbde24834	-0.11048928
16	0xbbe565e8	-0.0070006736
17	0x3cdf31ca	0.027245421
18	0xbea5fdef	-0.32420298
19	0xbe273ee1	-0.1633258
20	0x3cd2a35d	0.025712663
21	0xbe4a6df2	-0.19768503
22	0xbaee6ad6	-0.0018189799
23	0xbde29507	-0.11063581
24	0xbde903a0	-0.113776445
25	0xbe51ff1e	-0.20507476
26	0xbdb3fe86	-0.08788781
27	0x3db216af	0.08695733
28	0x3e0e5413	0.1389926
29	0xbdbdb538	-0.0926308
30	0x3de87b3c	0.1135163
31	0xbde0776a	-0.109602764
32	0x3dc0f5ea	0.094219044
33	0x3dc3bce7	0.09557515
34	0x3e0b88f2	0.13626459
35	0x3b174d92	0.0023087007
36	0xbe313bca	-0.17307964
37	0x3d7f48d8	0.06232533
38	0xbe8907f0	-0.26763868
39	0xbdce5030	-0.10073888
40	0xbd0d7ad2	-0.03454096
41	0x3ddf6738	0.10908359
42	0x3e3a1163	0.18170695
43	0xbcafe169	-0.021469789
44	0xbe41ec0b	-0.189377
45	0x3bbefbfc	0.0058283787
46	0x3dd6108c	0.10452375
47	0x3e318092	0.17334202
48	0xbc87cc7d	-0.016577
49	0x3e70ce75	0.23516257
50	0x3dae2957	0.08503979
51	0xbd6cecce	-0.057843022
52	0x3e1bd267	0.15216981
53	0x3c9c9d98	0.019118115
54	0x3e0fe2e9	0.14051403
55	0x3e1ee15a	0.15515652
56	0x3dee1c51	0.11626495
57	0x3e3b3def	0.18285345
58	0xbd2b9430	-0.04188937
59	0x3b59b200	0.0033217669
60	0x3e4b2931	0.19839932
61	0xbdfa021b	-0.12207433
62	0xbcad81db	-0.021180084
63	0x3d8417e8	0.06449872
64	0xbc05916a	-0.008152345
65	0xbe2d6235	-0.16931994
66	0x3e4a1ae7	0.19736825
67	0x3d0486e1	0.032355193
68	0xbe0ab5b6	-0.1354588
69	0xbe5ba827	-0.21450864
70	0x3b8f89c6	0.0043804375
71	0xbe531c6c	-0.20616311
72	0xbce34c81	-0.02774644
73	0x3dd97c3e	0.106194004
74	0xbc8643a8	-0.016389683
75	0xbe6b7f9c	-0.22997898
76	0xbd522837	-0.051307883
77	0x3ad1e99a	0.0016015053
78	0xbd0fd682	-0.03511668
79	0xbe84d6de	-0.2594518
80	0xbd2523e6	-0.04031744
81	0x3d961d3c	0.07329795
82	0xbe908497	-0.28226158
83	0xbdb7c0ea	-0.08972342
84	0x3e8b2669	0.27177742
85	0x3de34369	0.11096842
86	0x3e428c5d	0.18998857
87	0xbd885e64	-0.066586286
88	0xbe009762	-0.12557748
89	0x3e31932d	0.173413
90	0xbe3f6dd4	-0.1869424
91	0xbd2dd6d3	-0.0424412
92	0xbd2f8c3a	-0.04285834
93	0xbe765581	-0.24056055
94	0xbe6abecc	-0.22924346
95	0xbd70925a	-0.05873332
96	0x3e03c8d9	0.12869586
97	0x3e0439f1	0.12912728
98	0xbdefb14c	-0.117037386
99	0x3ce84aeb	0.028356036
100	0x3e4916d4	0.19637614
101	0xbe627739	-0.22115792
102	0x3d95e410	0.0731889
103	0xbdc65bba	-0.09685464
104	0x3d1d5b67	0.038417246
105	0x3dc527c9	0.09626729
106	0xbe7ac6bc	-0.24489874
107	0xbdcc0318	-0.099615276
108	0xbd4088f8	-0.047005624
109	0x3d373ebb	0.04473756
110	0x3de43f11	0.111448415
111	0x3dd36f3b	0.1032395
112	0x3e95a2a5	0.2922565
113	0x3babb800	0.0052404404
114	0xbdc6b2b8	-0.09702057
115	0x3e9f799a	0.31147462
116	0xbd881d52	-0.066462174
117	0x3e30d9b5	0.17270549
118	0xbe29a5a3	-0.16567092
119	0x3d00205e	0.031280868
120	0x3d49d2be	0.049273245
121	0xbdd3b855	-0.10337893
122	0x3e570f1c	0.21001858
123	0xbd6587e1	-0.056037787
124	0x3d08e55c	0.03342186
125	0x3e072ab3	0.13199882
126	0x3e20cc82	0.15703014
127	0xbe5a5cea	-0.21324506
128	0x3de6f29e	0.11276744
129	0xbcbb6907	-0.02287723
130	0xbe6655e8	-0.22493708
131	0x3dfba8ad	0.12288032
132	0xbe5d16ae	-0.21590683
133	0xbe15bd68	-0.14623034
134	0x3e893686	0.2679941
135	0xbdb519a1	-0.08842779
136	0x3d9ef9ec	0.077625126
137	0xbca0ea1b	-0.01964288
138	0xbe1a23c7	-0.1505271
139	0x3d8e079b	0.069350444
140	0x3c81ac8a	0.015829343
141	0xbe0c3a1d	-0.13694043
142	0x3d29f8f6	0.041497193
143	0x3e0a107b	0.1348285
144	0xbd5817ee	-0.052757196
145	0x3e17e118	0.1483196
146	0x3e54c1c4	0.2077704
147	0x3a83ffcb	0.0010070739
148	0xbd3b8098	-0.045776933
149	0x3e17d02a	0.14825502
150	0xbe237545	-0.15962704
151	0x3dab1251	0.08353103
152	0xbaf4d77d	-0.0018679943
153	0xbe755ae6	-0.23960456
154	0x3db1505b	0.08657905
155	0xbd1a1f99	-0.03762779
156	0xbd80bd73	-0.062861346
157	0xbd4fa382	-0.050693043
158	0x3e8b6fc4	0.27233708
159	0x3dab8517	0.08374994
160	0x3da81aec	0.0820826
161	0xbd3c0572	-0.04590363
162	0xbd3c4202	-0.045961387
163	0x3e07e5aa	0.13271204
164	0xbe89493e	-0.26813692
165	0xbe749c32	-0.23887709
166	0xbdd2fb82	-0.103018776
167	0xbe25af9f	-0.16180275
168	0x3d9b5c6f	0.0758599
169	0x3d07c6f7	0.033148732
170	0x3d5cd91a	0.05391798
171	0x3db5f9a8	0.08885509
172	0x3e303ec8	0.17211449
173	0x3e0aaa28	0.13541472
174	0xbd50ad90	-0.050946772
175	0x3a4af6c8	0.0007742462
176	0xbdef65a7	-0.116893105
177	0x3d8f82b7	0.07007354
178	0x3d051890	0.032494128
179	0xbdf0398a	-0.11729725
180	0x3d0dedf6	0.034650765
181	0x3d044f1e	0.032302015
182	0x3b107d00	0.0022047162
183	0xbeaaff71	-0.3339801
184	0x3c42ce19	0.011889958
185	0x3e24435a	0.16041318
186	0xbe9e1035	-0.3087174
187	0xbdbf4aee	-0.093404636
188	0x3e331163	0.17487101
189	0x3d82995c	0.06376907
190	0x3dbcbce9	0.09215719
191	0x3de162ef	0.11005198
192	0x3d2d84cb	0.04236297
193	0x3d4fae5b	0.050703388
194	0x3dca4b5e	0.098776564
195	0x3d90ac5e	0.070641264
196	0xbd1e3370	-0.038623273
197	0xbd12bdf2	-0.035825677
198	0xbe8f5e12	-0.28001457
199	0xbdfb6e74	-0.12276927
200	0x3e064d41	0.13115408
201	0x3d98a619	0.074535556
202	0xbe4beba9	-0.19914116
203	0xbe4b08be	-0.19827554
204	0xbcc7abdc	-0.024373941
205	0xbe6d0546	-0.23146543
206	0x3e1862b9	0.1488141
207	0x3d5ad2e8	0.053423792
208	0x3d995956	0.074877426
209	0x3dab629d	0.08368418
210	0xbd800dd5	-0.06252638
211	0xbd93da6d	-0.07219396
212	0x3e8ffec0	0.28124046
213	0xbd817dff	-0.0632286
214	0x3e47fbcf	0.19529651
215	0x3d105eee	0.035246782
216	0xbe4f6f5a	-0.20257321
217	0x3dd41b5a	0.103567794
218	0x3caee4d2	0.021349344
219	0x3e5b3095	0.21405251
220	0xbe1f2c7a	-0.1554431
221	0xbe7561a3	-0.23963027
222	0x3e55651d	0.20839353
223	0xbd34077f	-0.04395246
224	0x3db755a3	0.08951881
225	0x3dad2ffa	0.084564164
226	0xbd686514	-0.05673702
227	0x3c20746e	0.009793384
228	0xbc95a9be	-0.018269416
229	0xbd7cc2e6	-0.061709307
230	0x3e0b7fbb	0.13622944
231	0xbdd24847	-0.10267692
232	0xbce0dd29	-0.027449207
233	0xbe5b71e6	-0.21430168
234	0x3dc2b2e1	0.09506775
235	0xbe61b356	-0.22041067
236	0x3dc682b3	0.09692898
237	0xbdd15096	-0.10220449
238	0x3d421e25	0.04739203
239	0x3d7537f3	0.05986781
240	0x3dd35cee	0.10320459
241	0xbda8ed66	-0.08248405
242	0xbdf7e760	-0.12104678
243	0xbc74e1f3	-0.014946449
244	0xbe1fed5a	-0.15617886
245	0x3e85f4fd	0.26163474
246	0xbe09948c	-0.13435572
247	0x3c597374	0.013272155
248	0x3c52b609	0.012860783
249	0x3d977d02	0.0739689
250	0xbdfd99a1	-0.12382818
251	0xbe86cc0a	-0.26327544
252	0x3e1e27a8	0.15444815
253	0xbc0583d8	-0.00814911
254	0x3b2ec3a1	0.0026666897
255	0xbc283ebf	-0.010268866

onnx::GRU_112 f4 [1, 768]
0	0xbdee4695	-0.11634556
1	0xbe82888e	-0.25494808
2	0xbe26cc73	-0.16288929
3	0xbe695e33	-0.2278984
4	0xbe3893b6	-0.18025097
5	0xbea6fe2d	-0.32615796
6	0xbe4ba619	-0.1988758
7	0xbd5b34b9	-0.053517077
8	0xbe12d7eb	-0.14340179
9	0xbe715b63	-0.23570018
10	0xbeaaf32d	-0.33388653
11	0xbe3b17a9	-0.18270744
12	0xbe26e9ad	-0.16300078
13	0xbe8ce5c9	-0.27519062
14	0xbe5d34c0	-0.21602154
15	0xbdad093b	-0.08449026
16	0xbe395556	-0.1809896
17	0xbe1c8f8d	-0.15289135
18	0xbdac03b2	-0.08399142
19	0xbe915b0f	-0.28389785
20	0xbe4eb9f8	-0.20188129
21	0xbdbfb4f5	-0.09360687
22	0xbe8dd4fb	-0.27701554
23	0xbe3219bf	-0.17392634
24	0xbe4a2b19	-0.19743003
25	0xbd9e5544	-0.07731107
26	0xbdf58312	-0.1198789
27	0xbe245759	-0.16048945
28	0xbc218ad7	-0.009859762
29	0xbe9ba473	-0.30398902
30	0xbe46a23d	-0.19397826
31	0xbd8b25f9	-0.06794352
32	0xbe74c4d8	-0.23903215
33	0xbdae5691	-0.08512605
34	0xbe360111	-0.17773844
35	0xbd8c156c	-0.068400234
36	0xbe292210	-0.165169
37	0xbe0ec1e4	-0.13941151
38	0xbea226cd	-0.31670228
39	0xbe4e4752	-0.20144394
40	0xbe0228cb	-0.12710874
41	0xbe1b8392	-0.15186909
42	0xbe100a49	-0.14066423
43	0xbe76930b	-0.2407953
44	0xbe31408b	-0.17309777
45	0xbe065ca0	-0.13121271
46	0xbe606016	-0.21911654
47	0xbe6f4bf7	-0.23368822
48	0xbe1a615c	-0.15076202
49	0xbe679b17	-0.22617756
50	0xbe00db5c	-0.12583679
51	0xbe325443	-0.17414956
52	0xbe682ed6	-0.22674116
53	0xbe3ad973	-0.18247013
54	0xbe11084b	-0.1416332
55	0xbd79d404	-0.06099321
56	0xbe0febd8	-0.14054811
57	0xbe39449e	-0.18092582
58	0xbe47d576	-0.19515023
59	0xbe72dc7b	-0.23716919
60	0xbe69da6a	-0.22837225
61	0xbe8f86df	-0.28032586
62	0xbde3c62b	-0.11121782
63	0xbe3429b5	-0.17594035
64	0xbd9a81a7	-0.075442605
65	0xbe8b583d	-0.27215758
66	0xbdebb648	-0.11509377
67	0xbdeb82b7	-0.11499541
68	0xbdd05397	-0.101721935
69	0xbe2eb8cb	-0.1706268
70	0xbda24b3e	-0.079245076
71	0xbe816be9	-0.2527764
72	0xbc0c09b3	-0.008547234
73	0xbde7007b	-0.112793885
74	0xbe279ac8	-0.16367638
75	0xbdec24ce	-0.115304574
76	0xbe373fba	-0.17895404
77	0xbda840c0	-0.08215475
78	0xbe044a69	-0.1291901
79	0xbe931bb1	-0.28732064
80	0xbe92d71c	-0.2867974
81	0xbe470046	-0.19433698
82	0xbe919ec4	-0.2844144
83	0xbdd9f0c9	-0.10641629
84	0xbdb5a439	-0.088692136
85	0xbdf9b8c6	-0.12193446
86	0xbdcc9742	-0.09989788
87	0xbe7e26d9	-0.24819507
88	0xbe1a68dc	-0.15079063
89	0xbe11cb3e	-0.14237687
90	0xbe5924db	-0.21205465
91	0xbe2f25d8	-0.1710428
92	0xbe2f7265	-0.17133482
93	0xbdf7243e	-0.120674595
94	0xbe990feb	-0.29894957
95	0xbe755493	-0.23958044
96	0xbd4dbb72	-0.05022759
97	0xbe8c857b	-0.27445588
98	0xbe352777	-0.17690836
99	0xbe6f6bf6	-0.23381028
100	0xbe9c2f11	-0.3050466
101	0xbe984352	-0.2973886
102	0xbe14c447	-0.14527999
103	0xbe31d118	-0.17364919
104	0xbd5e350b	-0.054249804
105	0xbe6091aa	-0.21930566
106	0xbe2711f0	-0.16315436
107	0xbe6d8de8	-0.23198664
108	0xbe1dfdc9	-0.15428843
109	0xbe8a5cdd	-0.27023974
110	0xbe3152db	-0.17316763
111	0xbe1e22f7	-0.15443026
112	0xbe75f309	-0.24018492
113	0xbd5c9c80	-0.053860188
114	0xbcd70db8	-0.026251659
115	0xbe1769b2	-0.14786413
116	0xbe093942	-0.13400748
117	0xbe2c0400	-0.16798401
118	0xbde08aa5	-0.10963944
119	0xbe3280df	-0.17431973
120	0xbe2d3372	-0.16914156
121	0xbe9dd462	-0.30826098
122	0xbdfbef09	-0.12301452
123	0xbe1084d1	-0.14113165
124	0xbe973bf2	-0.29537922
125	0xbd3488f7	-0.044075932
126	0xbe0c2dd2	-0.13689354
127	0xbdfe911e	-0.12430023
128	0x3d44d2aa	0.048052467
129	0x3d0c37c9	0.03423289
130	0x3dbcfefd	0.09228323
131	0x3e2ca453	0.1685956
132	0x3e27fde4	0.16405445
133	0x3d50ad16	0.050946318
134	0x3e01345a	0.12617627
135	0x3ddd549b	0.10807153
136	0x3def4984	0.11683944
137	0x3e292827	0.16519223
138	0xba8e995b	-0.0010879444
139	0x3e026e93	0.12737493
140	0x3db3a443	0.08771565
141	0x3e7c41a5	0.24634416
142	0x3d2e2619	0.0425168
143	0x3ce99111	0.028511556
144	0x3daa4ce0	0.08315444
145	0x3dc2e5ef	0.095165126
146	0x3e56b7cc	0.2096855
147	0x3e0638ed	0.13107653
148	0x3e39d9d9	0.18149509
149	0x3e0fab99	0.14030303
150	0x3e19bd6c	0.15013665
151	0x3deeda90	0.11662781
152	0x3cbd1457	0.023080988
153	0x3bdcf398	0.006742906
154	0x3e4a997c	0.19785112
155	0x3b927c5b	0.0044703907
156	0x3e06ca67	0.13163148
157	0x3e3e40db	0.18579428
158	0x3de0fe5a	0.10986014
159	0x3d92343d	0.0713887
160	0x3e7d677d	0.24746509
161	0x3dd5033e	0.10401009
162	0x3cfcfb32	0.030881498
163	0x3e46f754	0.19430286
164	0x3cf9d6db	0.030497959
165	0x3dcee184	0.101016074
166	0x3db8ce35	0.09023706
167	0x3d02f95a	0.03197608
168	0x3e2a6ffb	0.1664428
169	0x3e397157	0.18109642
170	0x3dfdd2dc	0.12393734
171	0x3d508ce7	0.050915625
172	0xbbda83ab	-0.006668528
173	0x3ddd146b	0.1079491
174	0x3de3afbe	0.111175045
175	0x3cfe5daa	0.031050522
176	0x3e3b0d46	0.18266782
177	0x3d2f3688	0.042776614
178	0x3cdd88d4	0.027042784
179	0x3e2e89fd	0.17044826
180	0x3b38ef18	0.0028218683
181	0x3e0c5e78	0.13707912
182	0xbc46bbb1	-0.01212971
183	0x3d452f26	0.048140667
184	0x3e0af178	0.13568676
185	0x3d4c47f0	0.049873292
186	0x3e2b4618	0.16725957
187	0x3dd8d338	0.10587162
188	0xbbe6fc1d	-0.007049097
189	0x3d0e2d5a	0.03471122
190	0x3e49b413	0.19697599
191	0x3dd89c49	0.10576684
192	0x3de4695e	0.1115291
193	0x3e06b506	0.13154992
194	0x3d573da9	0.052549038
195	0x3d773c18	0.060360044
196	0x3e3af12b	0.18256061
197	0x3d03167f	0.032003876
198	0x3e43f0bb	0.191348
199	0xbbf3d330	-0.007440947
200	0x3dcb258d	0.099192716
201	0x3c18e7ee	0.00933264
202	0x3cea1266	0.028573226
203	0x3e1ca7e3	0.15298419
204	0x3d019ade	0.031641833
205	0x3db74561	0.0894878
206	0x3e077235	0.1322716
207	0x3e1fd120	0.15607119
208	0x3db5c072	0.08874597
209	0x3e3bb428	0.18330443
210	0x3dae8dd8	0.08523148
211	0x3ca21459	0.019785093
212	0x3e1d98e4	0.15390354
213	0x3e4834cc	0.1955139
214	0x3e316655	0.17324193
215	0x3e63b7ec	0.2223813
216	0xbd15aea9	-0.036543522
217	0x3d6ed87e	0.05831193
218	0x3e175099	0.1477684
219	0x3d44a2d8	0.048006862
220	0x3e0f010d	0.13965245
221	0x3d915644	0.07096532
222	0x3c31dc27	0.010855711
223	0xbc9e5270	-0.019326419
224	0x3e093621	0.13399555
225	0x3dec6c01	0.115440376
226	0x3e805d29	0.25071076
227	0x3cc57cb7	0.02410732
228	0x3df04187	0.11731248
229	0x3dc62af3	0.09676161
230	0x3d85be9e	0.06530498
231	0x3e4cc86d	0.19998331
232	0x3e826b70	0.25472593
233	0x3bf1b0d0	0.007375814
234	0x3e18d456	0.1492475
235	0x3e14a5ef	0.14516424
236	0x3d6740bc	0.05645822
237	0x3dfb6365	0.122748174
238	0x3e20da12	0.15708187
239	0x3e2c0d95	0.16802056
240	0x3e2096bd	0.15682502
241	0x3e4ce7a8	0.20010245
242	0x3dfd5fea	0.1237181
243	0x3ddd4131	0.1080345
244	0x3dffa0b2	0.12481822
245	0x3e1aec41	0.15129186
246	0x3e106f69	0.14105
247	0x3dc7c07a	0.09753509
248	0x3e25daee	0.16196796
249	0x3d38e2e2	0.045138247
250	0x3ddd35ee	0.10801302
251	0xb9b684c7	-0.00034812672
252	0x3dbce968	0.09224206
253	0x3e0feaa5	0.14054354
254	0x3dda3946	0.10655455
255	0xbd7fd279	-0.06245658
